model_training/model_nonrotated.pth (torch, 355702 bytes, 10 tensors)

fc1.weight f4 [64, 91]
00000000: 3a46 853d cc54 143f 54b1 03be 2a12 943e
00000010: 3eb8 f03d 8a5e 053f 39fd 27bf 68f1 cebc
00000020: da01 313f 5fd9 743d 3bb5 0a3e e4e4 7a3e
00000030: 5df3 a2be 7f20 ad3d 0968 903e 4b02 80bd
00000040: 4cef ac3d e35c 69be abeb e9be f531 2fbe
00000050: c1dc 11bd 3815 6a3e 6350 94be 9674 383e
00000060: a6f5 a7be d1f1 e73d c04e 19be 02a4 03bf
00000070: 47e3 4b3d 2c44 733e 6fb5 d2bd 9e16 0f3e
00000080: 505c ccbd 5cc0 6d3e 70e5 38be 6902 03be
00000090: 15f3 5dbe b088 5bbd 3175 8abe d345 203d
000000a0: dbed 033e 6ac9 b6bc be9e e93a d9d5 b73d
000000b0: 9ea4 0e3e e925 9d3e c5fb 6e3e 14b3 543e
000000c0: c976 103e 16ef ca3d 3a43 e03e 4dbb a13e
000000d0: cb8b 293e 1c49 513e 0fdf 99bd 0348 61b8
000000e0: 6bfe 303e f578 9f3c 5c4a 153d 31b2 f3bd
000000f0: 2f4a 693c aadd d7bc dde5 b13c 713a 48bd
00000100: 493d c63c f1db 253e c740 a53d 7119 56be
00000110: 6e2d 263c f64f 843d 8937 ae3c df59 57bc
00000120: fb3f 55bd 5f00 dabd b343 733d 1714 373c
00000130: 969e 6e3d 59d4 b23d 460c 9e3e 6887 bbbd
00000140: 8981 133d 4b38 213e 5889 cd3c 864c 30bd
00000150: a0d1 ad3d ada1 b1bd 15e1 903d 2716 fdbc
00000160: 6138 843e ded6 023e a13b 0dbe 018c e63a
00000170: 27db 883f fca8 2dbf 1d21 2e3e 5378 9a3e
00000180: e88e 61be 33fb ed3e 3587 4b3e fa38 a5be
00000190: 4ca6 b9bd 35d0 873e 7be5 983e 85a4 15be
000001a0: 9cbd 613d 3ed1 ffbd f567 a1bd 92e5 01bc
000001b0: 4fc5 fa3d 70f4 4bbe 450f 443e 9989 55be
000001c0: 2789 44bd cd89 17be 0065 e63d b849 74be
000001d0: 240b 3abe 79da ba3e 7402 21be 9809 963e
000001e0: 7af3 b5be 42bd 11be fafd c93d c7a1 abbd
000001f0: 4883 d43d b025 d7be aa26 9dbe a405 0cbe
00000200: d0ab 28bd adc5 c9bd 1fa7 2a3d 0b55 8cbe
00000210: ac02 593e fc24 983e 229c e5be 1783 f3bc
00000220: b5e0 873c 0630 12bd 9080 ac3d 244d cfbc
00000230: 3a17 183e 897c 863d 3310 acbd 16fc 22be
00000240: d9a1 bc3e 8a41 99bd 0d1b 733e 4a9e a2bd
00000250: 5124 12be f74d 54bd 74d6 4fbe c214 ccbd
00000260: 7ec6 f5bd 6545 ce3d 0715 2f3e aae5 f93d
00000270: 70b3 e73d 784c febd 83e9 aa3d 8c74 b7b8
00000280: 62a6 0b3e 4c26 f83c fbfc 653d 60cf 9cbd
00000290: 3ef0 713d d7f8 42bd b5d6 a33e 26ba 5f3e
000002a0: 6857 393e 5e03 c5be 64a3 b7be 027e 4d3d
000002b0: f60b b73d b9a3 7d3e d1cf a6bb fafe adbd
000002c0: fe0c 08be 37cf 36be 44bc 74bd da07 863c
000002d0: 945e e13d 7557 aebc 72c4 263f 5f83 fc3e
000002e0: cfc4 22be d424 fd3b 1f78 0f3e d7e9 fd3e
000002f0: 0886 6e3e 7a0b a5be 9f4c cabc 9751 cf3d
00000300: dcc6 67bd 19fc cd3e 779a b1bd 38a2 62be
00000310: cdc6 7f3e 0acf 183e f30d a3be fd29 c33e
00000320: a358 9d3e ea5c 1bbf 9b2e 1ebf 976c 83be
00000330: a849 40be 3238 83be e1c4 fdbd 1017 9dbe
00000340: 62d5 783e 99f9 113e e880 c4bd 4f83 693e
00000350: d60a 553e 40cb 773e 3b36 4fbd 2d42 aebe
00000360: 9b9a e1bd b2e2 953e 9ff7 033e 1ef2 613d
00000370: a2a1 023c 6efd febc dcf2 ed3d c99b 203e
00000380: 9f61 88bd 789f 93be 1d0a 6dbd 94e3 b1be
00000390: 6ae4 23be b796 90be 5628 b23d 87d2 94be
000003a0: ed02 743e a80a ce3d b777 6b3d 8500 6e3d
000003b0: b852 233e fb32 bbbd e089 80bd e9f4 77be
000003c0: cc93 fa3d e00d 50be 9b2b 97be 8209 a5bd
000003d0: ecad cd3d fa07 aebe 807d b53d 8840 c3bd
000003e0: 1e74 bd3e 2778 6d3e 263a bbbd 35bb 1bbe
000003f0: f92c f8bd 0b1c 18be 013c 8a3d aae9 04bf
0.06507535 0.5794189 -0.12860614 0.28920108 0.117538914 0.5209738 -0.6562076 -0.025261596
0.6914345 0.059777614 0.13545696 0.24501377 -0.31826296 0.08453464 0.28204373 -0.06250437
0.0844408 -0.2278934 -0.45687613 -0.17108901 -0.035610918 0.22859657 -0.2896758 0.18013224
-0.32804602 0.1132542 -0.14971447 -0.5142213 0.049777295 0.23756474 -0.10288512 0.13973472
-0.09978545 0.2321791 -0.18056273 -0.12793888 -0.2167476 -0.053597152 -0.27042535 0.03912909
0.12883703 -0.022312839 0.0017823798 0.08976335 0.13929984 0.30692986 0.2333823 0.20771438
0.14107813 0.09908883 0.4380129 0.31588212 0.16557233 0.20438045 -0.07513248 -5.3711246e-05
0.17284553 0.019466856 0.036447868 -0.11899222 0.014238878 -0.026350815 0.021716053 -0.04888386
0.024199145 0.16197182 0.08068996 -0.20908143 0.010142667 0.06460564 0.021266716 -0.0131439855
-0.05206297 -0.10644602 0.059390735 0.011174223 0.058256708 0.08731908 0.3086874 -0.09156686
0.036012206 0.1574413 0.025089905 -0.04304173 0.084872484 -0.08673415 0.07074181 -0.030894352
0.25824264 0.12777278 -0.13792278 0.0017589332 1.069188 -0.67835975 0.17004819 0.30169925
-0.2202717 0.46480712 0.19875796 -0.32270032 -0.09064922 0.26526037 0.2986258 -0.1461354
0.055112466 -0.12491082 -0.07881156 -0.007928269 0.12244665 -0.19917464 0.1914645 -0.2085327
-0.04798236 -0.1479866 0.11249733 -0.23856246 -0.18168312 0.36494806 -0.15723592 0.29304194
-0.3553732 -0.14232352 0.09862895 -0.08380466 0.103766024 -0.4202094 -0.3069356 -0.13674027
-0.04117948 -0.09852157 0.041663285 -0.27408633 0.21192425 0.29715717 -0.44845682 -0.029725594
0.01658664 -0.03569033 0.08422959 -0.025305338 0.1485261 0.06566722 -0.08401527 -0.15916476
0.3684223 -0.07483204 0.23740788 -0.079403475 -0.14271666 -0.051832166 -0.20296651 -0.09964897
-0.1200075 0.1007183 0.17097865 0.12202008 0.11313522 -0.12416929 0.0834532 -8.7478285e-05
0.13637689 0.030291699 0.056149464 -0.07656741 0.059067003 -0.047600593 0.31999746 0.21848354
0.18099749 -0.3847913 -0.35866845 0.050169 0.08937828 0.24769486 -0.0050906916 -0.084958985
-0.13286206 -0.17852484 -0.059749857 0.016361166 0.110043675 -0.021281937 0.651435 0.49318978
-0.15895389 0.0077253375 0.14010666 0.49592468 0.23293316 -0.32235318 -0.024694739 0.10122984
-0.05658613 0.40231398 -0.0867204 -0.22132194 0.2497818 0.14922729 -0.3184658 0.38117972
0.30731687 -0.6068865 -0.61789864 -0.25668785 -0.18778098 -0.2562881 -0.12391067 -0.30681658
0.24300149 0.1425537 -0.095948994 0.22803997 0.20804915 0.24198627 -0.050588828 -0.34034863
-0.11015817 0.29274517 0.12887429 0.05516254 0.007973107 -0.031126704 0.116185874 0.15684427
-0.06659245 -0.28832603 -0.057870973 -0.3474394 -0.16005102 -0.28239986 0.086991 -0.2906687
0.23829241 0.10060626 0.057487216 0.058105964 0.15949523 -0.09140583 -0.062762976 -0.2421452
0.12235221 -0.20317793 -0.29525456 -0.08058454 0.100429386 -0.3399046 0.08861828 -0.09533793
0.37002653 0.23190366 -0.0914195 -0.15208133 -0.12117953 -0.14854448 0.06749726 -0.51919043

fc1.bias f4 [64]
00000000: 443e b8be cb4f 6fbe 0d19 8b3d 0f83 6f3e
00000010: 4414 d8bc 3604 95bd feba 8abd 8b01 67be
00000020: 3d17 b8be 8408 3c3e 37f0 913d 5a27 02bf
00000030: 3dae 213e 8243 3a3c 0c52 9f3e 2df1 193e
00000040: 9784 4f3e 10f5 e63e 1279 9ebe b3d0 84bd
00000050: 47d1 da3e 22d6 ae3d eb32 c4be 51e5 ed3a
00000060: a8af 3f3d 3400 a8be ab2c 91bd dff3 83be
00000070: bf14 b53e 7442 15be 11f3 f9bd 87f5 03bd
00000080: aa9d 8bbe c2f1 81bd f75b 663d 6727 b9bd
00000090: 0e94 1b3f 229c 893e c888 06be 83e2 5b3e
000000a0: e812 033e 46ea 70be f79d 37be 065d 8e3e
000000b0: e414 a6be 4f71 16be 2be5 dbbd 502a 373e
000000c0: 4485 a03e 6f68 b4be 8bb0 aa3e 3a96 b2be
000000d0: 8d80 613e a134 8e3e 0bfb 143d 2d3d ae3e
000000e0: 25ec 7d3e 8e06 b0bd d205 8d3c 29f8 763e
000000f0: 35db 0ebe 0a2c 11be 9275 023f 70fb ab3e
-0.35985005 -0.23370282 0.067918874 0.23389839 -0.02637685 -0.07276194 -0.06773947 -0.22559182
-0.3595523 0.18362623 0.071258955 -0.50841296 0.15789123 0.011368634 0.31117284 0.15033408
0.20265423 0.45108843 -0.30951744 -0.06485119 0.4273779 0.08536936 -0.38320097 0.0018150007
0.04679838 -0.32812655 -0.07088598 -0.25771996 0.3536739 -0.14576131 -0.12204564 -0.032216575
-0.27268726 -0.0634494 0.05624005 -0.090407185 0.6077279 0.26876932 -0.13138115 0.21473126
0.12800181 -0.23526868 -0.17931353 0.27805346 -0.32437813 -0.14691661 -0.1073707 0.17887235
0.31351674 -0.35235927 0.33337817 -0.3488024 0.22021694 0.27774528 0.036372226 0.34031048
0.24797113 -0.08595 0.01721469 0.24118103 -0.13950808 -0.14176956 0.5096065 0.3359027

fc2.weight f4 [128, 64]
00000000: 724a 223e 675e 94be d9c0 8c3d 7e3c 44be
00000010: a18f 2ebd fa11 603e f2c1 963e dc8e 7fbd
00000020: 7f7a 893e c3ce 10be e913 96bd 578c 903e
00000030: b55d adbd 3dc5 f13d f66b 3c3e 7b0b 39bc
00000040: 1b5d 883e 87a3 263e a853 65bd 2666 d53e
00000050: cb3c 943d e099 593e 3795 ca3e e59c 0dbe
00000060: 322b a9be 564f a6bd 7984 5fbe b520 a7be
00000070: c523 01bf 39bd 79be 1cfe 7dbd 660e d63e
00000080: 27f7 ca3d 4e48 aebd 2c0a 80bd 2449 953d
00000090: 1d53 c73d 6d00 a0bd 907f 9abe 9162 443c
000000a0: 35cf ad3d a55f 7a3c 0e85 d03e 8a77 3bbd
000000b0: 97ac 963e 417a 81be 4b7f 943d d156 fcbd
000000c0: 9109 bb3e 2792 7cbe e025 da3c 301f 4abe
000000d0: 8058 943d 3f73 efbd e737 97bc b8ee d9be
000000e0: 1aed 8b3e d31b 113e 5556 b73e 6bed 07be
000000f0: 5a8d 06be e473 a1bb e8d5 283e 0a85 133d
00000100: 0721 de3d 411c f23e a029 3cbd 9eef 72bd
00000110: 659f 12bf e6a2 363d d8bb 6cbe 8620 ae3e
00000120: 96c9 b3bd 3cf8 6abe cc27 47be ab24 e8bd
00000130: 2670 5ebd 74ac 2f3d 399e 82be e982 13be
00000140: fa4a 82be 2b01 a73e 6786 ad3d d4f0 483e
00000150: 6da3 6e3e 7307 933d 80ad a4be 7a01 fdbd
00000160: fbce 1b3e bb13 b73c 4794 04bd 32ee 643e
00000170: 256d 083d f7f2 d9bd a813 463e fea6 923d
00000180: 91a3 c43d 747d c33d f530 1a3e 40b7 3abc
00000190: b81d 06bf e9dc 083e 7494 99be c534 e33c
000001a0: 9264 a23e ecac 313e d975 84be 95cf 8ebd
000001b0: 59a0 1f3c 9def 783d 7b51 9fbd 6e89 6b3e
000001c0: 92dc 10be b6a8 c0ba 713f d03b 8909 003e
000001d0: b2f9 023e fa21 a7be 585b 0f3e 4e32 3f3e
000001e0: d520 cebd 51bb 45be 1ec5 a93d 27e5 343e
000001f0: 0a84 d53e 4a63 69bd 7909 b13d 5ed4 5c3e
00000200: 07f3 c0be d1da 3b3e 1afa 9c3e ddb4 aabd
00000210: 4193 88be a817 d5bd d7fd 93be 5b06 31bf
00000220: fad5 c9bd 39f6 a8be 9319 01be 3318 d33e
00000230: aadb dcbc bc65 bcbe 5d62 a53b c642 1dbf
00000240: 2faa 753c b270 febe eabc 973e 7859 28bd
00000250: e293 b6be 56d6 be3e 48a0 41bf 0e5e 513e
00000260: 3c3f 013e daee 263e 8567 32bd 27f1 9a3e
00000270: 8102 56bf 5304 993e c44d 083e 7f28 963e
00000280: fe48 17be 0f3f 903e 3340 06bf 6cfa c53d
00000290: 408d 14be 98aa 683d 2580 7c3e 617f 6b3e
000002a0: 7610 f33c 4777 9fbd 6aee 55be 695d 293d
000002b0: 61ae b73d edc5 0fbe 0fb5 4d3d 7e77 99be
000002c0: 4d16 143e 3d41 bb3d 7b7d 203e 074c b3bd
000002d0: f11a 553e e663 7f3d 5abf 453e fce0 01be
000002e0: d821 d73e 00bb 76bd cf04 6dbe b3ab 92bb
000002f0: f239 fe3d e93a 343e d871 9dbc 631a 183e
00000300: 71e9 843d 3bc2 44be 501f d73e 0835 143e
00000310: df66 8a3e 14e3 063e 9a5c 903e b118 843e
00000320: a277 1abf 1c2d ac3d 8f56 12be 5df5 803e
00000330: e457 bbbd 272a babd ef0e 963d 9c04 18be
00000340: 13bc 6f3e 89b9 073f 58aa 513e 1741 8bbe
00000350: cdf7 283d 8c26 783c b284 31bf 394f 4d3d
00000360: 9cfe 5f3e f377 01be 832b 49be bbf4 1abe
00000370: 4251 8e3e e727 713e 64fd febd f66b 10be
00000380: a1f0 ccbc 64ba a1bc cbf1 ec3d 977e 66be
00000390: 28b1 cebd 2a6d e5bd 30b1 653e 1e9a d1bd
000003a0: 88e2 cfbd 44a1 a9be c5ee d7bd 8bd3 8c3d
000003b0: e168 913d 4ed4 8d3e fe59 233e 5599 f23c
000003c0: 4319 dabd 851a 9cbe b3ee 03be 2f38 803e
000003d0: e0d4 3a3e f03f d93d af62 7dbe f62e b4be
000003e0: 3c3c 0b3e 41c4 86bb 57d7 0d3e 172e 503d
000003f0: 2029 af3a 0b6a ab3e 2de2 803d e21d 5bbe
0.15848711 -0.28978273 0.0687272 -0.19163701 -0.042617444 0.21881858 0.29444844 -0.0623921
0.2685127 -0.14141373 -0.07328016 0.2823207 -0.08465139 0.11805198 0.18400559 -0.011294241
0.26633534 0.16273318 -0.055987984 0.41679496 0.07238158 0.21250105 0.39566967 -0.13829382
-0.33040768 -0.08120601 -0.21827878 -0.3264214 -0.50445205 -0.24388589 -0.062009916 0.4180786
0.09910422 -0.08509885 -0.0625194 0.07289341 0.097326495 -0.07812581 -0.30175447 0.011986391
0.08486787 0.0152815925 0.40726513 -0.0457683 0.2942855 -0.25288585 0.07250842 -0.123212464
0.36530736 -0.24665128 0.026629388 -0.1973846 0.072434425 -0.11691903 -0.018459274 -0.4256494
0.27329332 0.1417077 0.35808054 -0.13274162 -0.13139859 -0.0049271453 0.16487849 0.036015548
0.10846143 0.4728718 -0.045938134 -0.059310548 -0.57274467 0.044588946 -0.23118532 0.34009188
-0.08778684 -0.22946256 -0.19448775 -0.11335119 -0.05430617 0.042889073 -0.2551134 -0.14405407
-0.25447828 0.3261808 0.08472901 0.19623119 0.2330453 0.07179155 -0.3216362 -0.12353797
0.15215676 0.022348275 -0.03236797 0.2235649 0.033307213 -0.10642045 0.19343436 0.071607575
0.0960151 0.09545413 0.15057738 -0.011396229 -0.523891 0.1336552 -0.29996073 0.027735123
0.31717354 0.1735112 -0.2587116 -0.06973187 0.00974282 0.060775388 -0.07779213 0.23001644
-0.14146641 -0.0014698717 0.006355219 0.12503637 0.12790564 -0.3264311 0.13999689 0.18671533
-0.10064856 -0.19309737 0.0828955 0.1766554 0.417023 -0.056979455 0.08644385 0.21565387
-0.37685415 0.1834519 0.30659562 -0.08335278 -0.26674846 -0.10404903 -0.28904602 -0.6915032
-0.09855266 -0.33000353 -0.12607412 0.412294 -0.026960213 -0.36796367 0.005047126 -0.61430013
0.014994188 -0.49695355 0.29636317 -0.04110095 -0.356597 0.372729 -0.75635195 0.20446035
0.12621778 0.16302052 -0.043555755 0.3026211 -0.8359757 0.29886112 0.13310915 0.2932777
-0.14773938 0.2817311 -0.5244171 0.09666905 -0.14507008 0.056803316 0.24658258 0.2299781
0.029670935 -0.07786422 -0.20891729 0.04134885 0.08968807 -0.14040346 0.0502215 -0.29973978
0.14461632 0.091433026 0.15672867 -0.087547354 0.20811059 0.06235113 0.19311276 -0.12683481
0.42018008 -0.06023693 -0.23146366 -0.0044760345 0.12413396 0.17600597 -0.019219324 0.14853816
0.06489838 -0.19214718 0.42016077 0.14473355 0.2703161 0.13172561 0.2819565 0.25800088
-0.60338795 0.084070414 -0.14290832 0.25187197 -0.09147623 -0.09090071 0.07327067 -0.14845508
0.23411588 0.5301748 0.20475137 -0.27198097 0.041251946 0.015145909 -0.693431 0.05012438
0.2187447 -0.12643413 -0.19645505 -0.1513242 0.2779637 0.23550378 -0.12450674 -0.14103684
-0.025017085 -0.019742198 0.11569556 -0.22509228 -0.100923836 -0.11202462 0.22430873 -0.10234474
-0.10150629 -0.33130848 -0.105435885 0.06876286 0.07100082 0.27701038 0.15952298 0.02961413
-0.106493495 -0.30488983 -0.12884025 0.25042865 0.18245268 0.10607898 -0.24744676 -0.35192078
0.13597196 -0.0041127508 0.13851677 0.050825205 0.0013363697 0.33479342 0.062931396 -0.21398118

fc2.bias f4 [128]
00000000: e7d2 5ebe 7d61 ce3d 4039 d3be 850b d7bc
00000010: b14c e8be e91a d1be e260 0abe a309 333e
00000020: 81b7 103e 6609 603e b2cf 89be ab10 133f
00000030: 44d9 9ebb de20 60be faf6 b5be b895 1b3f
00000040: ab62 be3e 41fd 303e aac4 a23e 244b ba3e
00000050: 4427 1e3f 60de 9c3d 552a f2be 932d acbd
00000060: 08d3 0dbf 27c3 ac3e 4c7c ae3d 728b a63e
00000070: 28e4 01bc 5893 683e 289b 34bf 5dc7 d93e
00000080: 0d01 6a3d 154a 143d 3110 623e 4ddd fa3e
00000090: ba7f 28bd 5987 61bf 37c9 d03e a056 ff3d
000000a0: fb60 453c 67c8 1bbe 3919 103e 6b46 043f
000000b0: 866f 143d 0b80 d83e d823 89be f029 bb3e
000000c0: 90fd 3d3e 86d2 96bd 203b a7bb 2337 06bf
000000d0: 39ec 36bd 456b c33e 0c33 09bf a067 40be
000000e0: 8535 b7be f17e 043f 3939 483e 4ff0 1e3f
000000f0: 32d8 34be a8b5 2f3d 75d0 f53e 2d08 cc3e
00000100: 0893 b13e 549a d5be 001b 7ebd b24e a23e
00000110: ced6 e23c edc8 33be c291 363c 4042 2ebe
00000120: 36c1 12bf d2e8 ffbc 3abb 4abe cc24 093e
00000130: 19a6 8a3d b054 87be bd4c d7be 1877 353d
00000140: e3d2 db3e 8cd1 683e d6f1 273e 735c 173f
00000150: 1cb1 f0be 4c26 0e3e 9a64 1dbe 70a1 673e
00000160: 9943 4ebe 136e 5d3e 10eb 1d3e b965 f1bd
00000170: b276 113f 67b0 e4be 6a4d db3e 596d 50be
00000180: bee8 80be 219f b33c bffb d5be 1a42 8ebe
00000190: 2631 58be 8eb7 9d3c 41a4 e1be 2743 08be
000001a0: b5a7 48bd b2c9 cf3e 75bd 723e d0a5 9b3e
000001b0: b60f 64be 579e 05bf 2444 88be 41fc dc3e
000001c0: 1ebe ed3e 6a97 c83e 39fe 1abd 29f4 193f
000001d0: afef 06bf 508c a6bd f9d3 06be e6d0 533f
000001e0: f854 a23e a870 7a3e 7a8a d13e b562 5f3e
000001f0: 95c7 8fbd 01c7 213f 1358 b3be 844a 42bd
-0.2176014 0.10077188 -0.41254616 -0.02625061 -0.4537101 -0.40840843 -0.1351352 0.17484145
0.14132501 0.21878585 -0.2691627 0.5744731 -0.0048476774 -0.21887538 -0.3553999 0.6077533
0.37184653 0.17284109 0.31790668 0.36385453 0.61778665 0.07659602 -0.47297922 -0.0840713
-0.55400133 0.3374264 0.085198015 0.32528263 -0.007927932 0.22712457 -0.7054925 0.42534915
0.05712991 0.036203463 0.22076489 0.48996964 -0.041137435 -0.8809715 0.40778515 0.12467694
0.012047048 -0.15213166 0.14072122 0.5166995 0.03623917 0.4228519 -0.2678516 0.36555433
0.18553758 -0.07364373 -0.005103484 -0.5242788 -0.044658873 0.38167778 -0.53593516 -0.1878953
-0.3578302 0.517562 0.19553079 0.6208543 -0.17660597 0.04289785 0.48010603 0.39849988
0.34682488 -0.41719306 -0.062037468 0.31700665 0.027690317 -0.17557116 0.01114315 -0.1701746
-0.57326066 -0.031238947 -0.19797984 0.13392943 0.06769962 -0.264318 -0.42050734 0.04430303
0.4293433 0.22736186 0.16400847 0.5912544 -0.47010124 0.13881797 -0.15370408 0.22620177
-0.20142974 0.21624021 0.154217 -0.1178698 0.5682174 -0.44665834 0.428325 -0.20354213
-0.25177568 0.021926465 -0.4179363 -0.27784806 -0.21112499 0.019252565 -0.44070628 -0.13306867
-0.048988063 0.4058357 0.23705085 0.30399942 -0.22271618 -0.5219473 -0.26614487 0.43161204
0.4643411 0.3917802 -0.037840102 0.60138184 -0.5270948 -0.08132231 -0.13166799 0.8274063
0.3170545 0.24457037 0.40925962 0.21814997 -0.07020489 0.6319428 -0.35028133 -0.047434345

fc3.weight f4 [256, 128]
00000000: 6b1e ad3c 1737 ed3c 1038 25be e424 323e
00000010: 48e5 0cbe 3d9f 5fbc bba2 8c3e 6715 c2bd
00000020: 243a b0be b92b 2dbd 900e 41be c73f e2bd
00000030: 13f9 563e af15 6dbe 5137 813d 8c77 90be
00000040: 0f4b 3f3d 0bcb e4bc c5f7 83bc 5049 213e
00000050: 4ae8 b13e f7d5 873c 52b9 213c 174d 6a3d
00000060: a11f 9d3d de0e 613e 1e41 593e cebf 40be
00000070: b5c9 d03c c11c af3d 656d 3e3e 53c9 a23e
00000080: cae3 b73d 7c27 143e a984 b13e ea8d 333e
00000090: 0df3 c43d 60a8 4b3e 9153 8a3e 0dc4 9c3e
000000a0: dc03 aabd a079 02be 12b1 f63b c6b3 dfbd
000000b0: a1b9 4b3e 8a48 3ebf 8c47 afbe 1e66 5f3c
000000c0: 7b9e 243e 29c6 ddbd 3d4f 6e3e d845 9e3e
000000d0: 561d 0d3d 8741 2bbe 5b9b ddbe 14c0 d53d
000000e0: e031 ac3d 6b3a 69bd 726a 7cbe 1349 fdbe
000000f0: 4e10 aa3e d63e cc3c fda1 993e 808b 55be
00000100: 2081 863d 158e 303d 251e 463d ed8f 50be
00000110: b82c 013e b654 febc fdc3 963e 3795 1abe
00000120: 117a f5be 44a2 c63d bf9e b4be a412 f2bd
00000130: f691 73be 6009 d5bd ea73 1f3e 6fe6 c73e
00000140: c276 443d b69f 39be d7fa 553b 247e aabe
00000150: ce1b 5a3b 5c17 c9bd f06a a2bd c06d b53c
00000160: f05d fe3d a5a6 9fbe 0735 8fbd 2e42 23be
00000170: 66bd 623e 92ad 443b 5d0f fe3d 327c 72be
00000180: 9366 00be 20aa 92be 104b c13d bf38 ea3d
00000190: f4c4 583e 0e9a afbb 545b e33d de82 a43e
000001a0: bcc6 49bd ab8d d3be 09f8 e63c 9aa9 983e
000001b0: 8f0a 313d 5045 2abe 914f a0be 49dc 99bd
000001c0: c4e5 07be ceac ddbd e7bd 16bf 70f7 3bbe
000001d0: 9b1e 82be ee4b d8bd 05cc f6bd dbd3 c33e
000001e0: 8a10 833d c021 bf3e 3c0a 893e 3083 d33d
000001f0: c3a8 8ebd 05c1 933d 8dce cd3d 6921 a13e
00000200: b5de 0dbe 425f 683e 0056 84be 05cb debd
00000210: 7567 01bd 8153 5f3e c5d3 ad3d f7aa b73e
00000220: 67c9 253d 6099 18be 4988 083e 7caf 63be
00000230: 060a 5b3e f995 b7bd 2e77 debd 49bf 5b3e
00000240: b3a8 273e 82b2 01bf 708c 28be 9c0f 67bc
00000250: 4f1b 283e a6d3 283d 33ca 11be bd5a e43d
00000260: 4005 2fbf 5c3a abbe 0fe3 28be 700c e2bd
00000270: 9ad1 56ba fd40 3fbe 00f2 efbe d1af edbd
00000280: ecbc 46bd fe86 fabd 252c 293f 74b2 f33e
00000290: 8174 5f3e 11a0 553e 5b85 cc3d f81c 133d
000002a0: fe91 193e 6d4e 8ebe 68e1 283e bf13 073e
000002b0: 859e 4d3d 9240 db3e 7be2 243e 641e c6be
000002c0: 4b99 973d 660f 263d a598 2fbe 92c1 f0be
000002d0: 11af acbd d51b 41be 4c17 303d 8faa d6bd
000002e0: c371 a4be 028a 21bc 99c0 613e 19ed a63d
000002f0: 2af0 39be bd42 c5bc 713e 96be 7abd 413e
00000300: 8c8d c93a ccf8 eabe 1da0 823e d580 17be
00000310: 50ab 00bd f566 c73e 7eec 9e3e f3f3 e23c
00000320: 66b1 b33e aa12 bdbe 0a20 2d3e 84e2 203c
00000330: 9e0a adbe fefb 8bbd 9910 19be af18 6c3e
00000340: 7ccd 6d3e f88f ce3d 8fbf 3fbd 444e 34bc
00000350: 3a22 433e cd73 0fbe 9d6e a13e d2a2 063e
00000360: edc7 dcbd 4ba8 be3c 9828 7abc f956 f73c
00000370: ea42 743e e01e 143f 3d57 473c 01f3 e23c
00000380: ff12 07be 181d 4d3c 3633 563c 10ae 0f3e
00000390: 8ca5 73bd acab 11bf 54aa 953d 71e8 72be
000003a0: 779b cbbd 1aa6 6f3d d344 a03e 14f9 b3bd
000003b0: 3971 c6be 22b8 5cbe 7e59 a8be c0e5 2abe
000003c0: 167b 1bbe 6edc 283e be6c 883e 087e c4bc
000003d0: 68e9 5c3e 8b22 e53e 747b 3e3e e9a9 6e3d
000003e0: c546 be3d 686f 233e cd2a c1bd 526e dabb
000003f0: 5612 4ebd 4f67 253d 0d31 e1be 2052 363e
0.021132668 0.028956933 -0.16134667 0.17396885 -0.13759339 -0.013648805 0.27467903 -0.094767384
-0.34419358 -0.042278025 -0.18853211 -0.11047321 0.20993452 -0.23152803 0.06309379 -0.28216207
0.04670244 -0.02792885 -0.016109357 0.15750623 0.34747535 0.016581519 0.009870844 0.057202425
0.07672048 0.21978328 0.21216246 -0.18823168 0.025486806 0.08550406 0.18596418 0.31794223
0.08978994 0.14468187 0.34671524 0.17534605 0.09616671 0.19888449 0.2701688 0.30618325
-0.08301517 -0.12741709 0.0075284326 -0.10922961 0.1989503 -0.74329436 -0.34234273 0.0136351865
0.1607608 -0.10828812 0.23272415 0.30912662 0.034451805 -0.16724215 -0.4328259 0.104370266
0.084079504 -0.056940477 -0.2464998 -0.49469814 0.33215564 0.024932306 0.300064 -0.20853996
0.065675974 0.04310425 0.04836859 -0.20367403 0.12614715 -0.031046253 0.29446402 -0.15095983
-0.47944692 0.096989185 -0.35277364 -0.11819962 -0.23786148 -0.10402179 0.15571561 0.39042994
0.04796482 -0.18127331 0.0032650733 -0.33299363 0.0033280733 -0.098189086 -0.07930553 0.02214706
0.12420261 -0.31181827 -0.06992536 -0.15943214 0.22142562 0.0030010683 0.12405274 -0.23680189
-0.12539129 -0.2864542 0.09438145 0.11436605 0.21168882 -0.005358941 0.11101404 0.32131094
-0.049261793 -0.41319022 0.028194444 0.29816896 0.04322296 -0.16628003 -0.31310704 -0.07512719
-0.13271242 -0.108239755 -0.5888352 -0.18356109 -0.25413975 -0.105613574 -0.120506324 0.3824757
0.06399639 0.37330437 0.2676562 0.103277564 -0.069657825 0.0721455 0.10049162 0.31470802
-0.13854487 0.22692588 -0.25846863 -0.10878567 -0.031592805 0.21809198 0.084876575 0.35872623
0.040475275 -0.14902258 0.13333239 -0.2223491 0.21390542 -0.08964152 -0.108625755 0.21459688
0.16372947 -0.50663006 -0.16459823 -0.014102843 0.16416667 0.04121747 -0.14237289 0.111501195
-0.68367386 -0.33442962 -0.16492866 -0.110375285 -0.0008194685 -0.18677135 -0.4686432 -0.116058
-0.048520014 -0.12232779 0.66082984 0.47597086 0.21821786 0.20861842 0.09986373 0.0359163
0.14997098 -0.2779421 0.16492236 0.13191126 0.050200004 0.428227 0.1610202 -0.3869506
0.07402285 0.04054203 -0.17148073 -0.47022682 -0.08431829 -0.18858273 0.042990968 -0.1048175
-0.32118043 -0.009859564 0.22046126 0.081506915 -0.18158022 -0.024079675 -0.29344514 0.18919936
0.0015377267 -0.45892942 0.25512782 -0.1479524 -0.031413376 0.38945737 0.31039804 0.027704215
0.35096282 -0.36928302 0.16906753 0.0098196305 -0.33797163 -0.06835173 -0.14947738 0.23056291
0.23222917 0.100860536 -0.046813544 -0.011004988 0.19056025 -0.14009018 0.31529704 0.13148049
-0.1078032 0.023273608 -0.015268467 0.030192839 0.2385365 0.5785961 0.012166795 0.027703764
-0.1319084 0.0125191435 0.013073733 0.14031243 -0.05948405 -0.56902575 0.07307878 -0.23721482
-0.09941762 0.058508016 0.3130251 -0.08787742 -0.38758257 -0.21554616 -0.32880777 -0.16689205
-0.15183672 0.16490337 0.26645464 -0.023985878 0.21573412 0.44752917 0.18601781 0.058267508
0.09290842 0.15960467 -0.09431992 -0.0066659832 -0.050310455 0.040381726 -0.43982735 0.17804766

fc3.bias f4 [256]
00000000: 30eb 9fbd f784 b53e ac1d e2be 71b9 c53d
00000010: a1ba e83d d026 c8be 9396 8a3e fc47 b13d
00000020: 0dce c03e 8cbd 4dbe 03ac 7bbe 06e5 8e3e
00000030: 0f77 ce3e 4a3b b43e 7a5c 353e 3ac5 96be
00000040: 1cc3 6abd c27e 353d c30b 0c3d 359d 753e
00000050: b517 abbd e738 203e 1e80 713d e8bb 43be
00000060: 12d5 2ebf 3e6e a4be a6d4 d23e 9ace 58be
00000070: 5373 00be 1082 8ebd 3fbf b33e b614 a03e
00000080: 27bb 20bc e0cb 5fbe e46f fa3d e92c 633d
00000090: 095a 2c3f a120 cabd 815a 1c3e 4e9b a2bd
000000a0: 017e 3abe 1403 3e3e 0d29 2fbe 68e4 243c
000000b0: 45c3 10be 3275 e4be 9fdc 2abe 4305 643d
000000c0: 4569 d43e 6e87 44be c866 8e3d 5a4a ad3e
000000d0: ee8e 1bbf f0be 0f3c dba9 f83e d700 02bf
000000e0: 6774 2e3d bff5 093e 9e6e 053e a6a9 bc3e
000000f0: 0697 dabe 4e09 033f fcc2 0bbf 8f14 bb3d
00000100: 6354 6bbe c974 dc3d 2a7c 363e 00ca 283e
00000110: 33bc 70be 551e 36bf 67ba c33e 5e58 c0bc
00000120: 84e7 b3bd a610 223d 3798 f6be 4059 8cbc
00000130: 4f36 e1bc 05aa 3fbe 6cf8 5bbe fa50 093f
00000140: 1f01 e8be 117e b93e f181 b03e 7b13 003f
00000150: 9369 d63e 975d d23d f9e6 44bc db0d ae3d
00000160: 0115 e83e 553e e6be 40dd b9bd 825e 04bc
00000170: d20d a03d da72 863e e3fb 213f 1bb8 d73e
00000180: ad47 843e cf10 53bd 3fe0 80be f4a2 3fbe
00000190: 06d1 813d 43fa edbe aff2 ac3d 533c 11bf
000001a0: 9cac c03d ca9c dcbe 125e c6be b0cf 89bc
000001b0: c6d7 babe 39fd b63d dbb8 b13e 7116 2abe
000001c0: 2f83 23bf 5683 87be abbd 2b3d dacd 67bd
000001d0: 7f63 fbbd fe3b 163e 172d 553e 46af e83e
000001e0: 46c8 e93b 9542 d93e 604c 973f bb35 433e
000001f0: cb0a b73d bb77 dc3d 7266 313f 4ee6 b8be
00000200: 5a09 823d 5ccc a23e 24e8 fabd 831f 9cbe
00000210: 4e2d b9bd f814 343e dfc5 16be 9fef 7b3d
00000220: ff3f b33d 6175 51be fbde c3bd 1a91 83be
00000230: e10b 4f3e 197b 493f b60b ecbc ce34 7fbe
00000240: d083 4c3e 0f96 1abf b428 c33e 759e a0bd
00000250: 3b44 5dbe fa20 603e a645 e2be 2578 87be
00000260: 627a b5bd aefb 1abf 658a febe 9f25 03be
00000270: fa16 2cbe 47bf 56be 3b01 2fbd 066a 833d
00000280: 0ba4 c6be c991 d93e 22f5 73be 9a30 b13d
00000290: fc44 adbe 52af 1c3e 13a5 a43d 12a4 34bf
000002a0: d091 94be 66db 62be 207b 53be a7c6 4ebe
000002b0: 1cfd 8e3e e0e0 053e a5fc 003f bb24 603e
000002c0: c733 8e3e c579 8ebc 53e8 3abe 4f81 49be
000002d0: 4da3 c8bc 28cd 353e 495c 7a3c b252 efbd
000002e0: 513d 06bf 3b58 36bf d77e 813e 0ca8 c23d
000002f0: 85cd 46be 37d6 2e3e 82af 19be e99f fe3d
00000300: 33d9 14bd fae7 8a3e db02 f3be 3200 a53d
00000310: 1cbe 023c 4cbb 49bf 3359 e93c 94a1 3abf
00000320: a9fd 053f 450f 8c3c d555 0b3f d0f4 11bd
00000330: 9b50 6fbf 579b 0f3f d47d 6e3e ff68 b0bd
00000340: 3e78 4f3e 4302 31bf 1f6b ea3e 5b16 1abf
00000350: 7634 d93d 48e6 b33e 3195 d63e 2e50 04bd
00000360: f108 df3e 62d6 9f3d acae 113e 0edf 1a3d
00000370: 9c0f ca3e 7644 8bbe 6403 e2bd 8e35 d5bc
00000380: 15e5 c6bd a08e b4be c489 86be b3c9 cf3c
00000390: 982b 1ebf d3f8 fe3e 2fba 72bf c09c 883e
000003a0: 3d3f 11bf 9889 903c f15e bf3d 11f6 f4be
000003b0: d20a f03e a9f9 9d3d 4465 e3be 2de7 95be
000003c0: f979 b5bc cd2b 963d 4c34 753e 09be da3d
000003d0: 5de9 0dbe edc0 983e fb69 6abd b032 b8bd
000003e0: 059b 0dbf 39c5 1bbe 3fde 6cbe f0f0 e83e
000003f0: 6831 083e 06a0 053f c682 083e 2720 e73d
-0.0780853 0.35453007 -0.44163263 0.09654511 0.11363722 -0.39092112 0.27068004 0.08656308
0.37657204 -0.20091838 -0.24577336 0.27909106 0.4032521 0.35201484 0.17711058 -0.29447347
-0.057314977 0.04431034 0.034190904 0.23985751 -0.08354131 0.15646707 0.058960073 -0.1911465
-0.6829387 -0.32115358 0.41177863 -0.21172562 -0.12543993 -0.06958401 0.35106847 0.312658
-0.009810246 -0.21855116 0.12228373 0.05546275 0.6732488 -0.09869505 0.152689 -0.07939778
-0.18212129 0.18555862 -0.17105503 0.010064222 -0.1413699 -0.44620663 -0.16685723 0.05566908
0.41486564 -0.19192287 0.06953198 0.33845788 -0.6076497 0.00877355 0.4856709 -0.5078253
0.04259148 0.13472651 0.13030478 0.3684818 -0.42693347 0.5118607 -0.545944 0.091347806
-0.2298141 0.107644625 0.17820802 0.16483307 -0.23509292 -0.71140033 0.3822815 -0.023479637
-0.087843925 0.03956666 -0.48163006 -0.017132401 -0.027491717 -0.18717201 -0.21481484 0.53639185
-0.45313355 0.36228994 0.34474137 0.50029725 0.41877422 0.10271757 -0.012017959 0.084987365
0.45328525 -0.4496943 -0.09075403 -0.008079173 0.07815136 0.262595 0.63274974 0.4213265
0.25835934 -0.0515297 -0.25171086 -0.18714505 0.06338696 -0.46479997 0.08444726 -0.5673267
0.094079226 -0.4308837 -0.38743645 -0.016822666 -0.36492747 0.08935017 0.34711346 -0.16610123
-0.63872045 -0.2646739 0.04192893 -0.0565928 -0.12274837 0.14671323 0.20817982 0.45446223
0.00713447 0.4243361 1.1820183 0.19063465 0.089376055 0.10765024 0.69296944 -0.3611321
0.0634944 0.3179654 -0.122513086 -0.30492792 -0.09041844 0.17586124 -0.1472392 0.061507817
0.08752441 -0.20454933 -0.095640145 -0.2569664 0.20219375 0.7870346 -0.028814178 -0.24922487
0.19972157 -0.6038522 0.38116992 -0.07842723 -0.21608059 0.2188758 -0.44193763 -0.2645885
-0.08861233 -0.6054028 -0.49714962 -0.1280732 -0.1680564 -0.20971404 -0.042725783 0.06416707
-0.3879703 0.42494038 -0.2382398 0.08651848 -0.33841693 0.15301254 0.08039298 -0.7056285
-0.29017496 -0.22154006 -0.20652437 -0.20192967 0.27927482 0.13074064 0.50385505 0.21889012
0.27773878 -0.017392049 -0.18252687 -0.19678234 -0.02449193 0.17754042 0.015280792 -0.11685695
-0.5243731 -0.7122838 0.25292084 0.09504709 -0.19414337 0.17073904 -0.15008357 0.12432844
-0.03633995 0.2713011 -0.47463116 0.08056678 0.007979896 -0.7880142 0.028484916 -0.729028
0.5234018 0.017097125 0.54427844 -0.035633862 -0.9348237 0.56096405 0.23290187 -0.086137764
0.20260713 -0.69144076 0.45784852 -0.6019036 0.10605709 0.35136628 0.419107 -0.032303028
0.4356151 0.07804562 0.14226788 0.037810378 0.39465034 -0.2720067 -0.11035803 -0.026026513
-0.09711663 -0.35265064 -0.26276982 0.025364732 -0.6178527 0.49799213 -0.94815344 0.2668209
-0.5673712 0.017643735 0.093442805 -0.47843984 0.46883255 0.077136345 -0.44413197 -0.29277936
-0.022152888 0.07332573 0.23945731 0.106807776 -0.13858552 0.2983469 -0.057229977 -0.08994043
-0.55314666 -0.15211953 -0.23131655 0.4549632 0.13300097 0.521973 0.13331136 0.112854294

fc4.weight f4 [128, 256]
00000000: 4c6c 2dbe c300 fbbc 9023 18c0 a787 c63d
00000010: f8b2 05bf 57f5 06be db05 06be a492 043e
00000020: 9f3d dabe 1917 5e3e adaa 033e d323 35bb
00000030: 62e2 843e 1064 a2bf 498c 5b3e 8b72 87be
00000040: b9bc 843e 1c10 00bf bcc4 2b3e 743a 79bf
00000050: 52c1 0a3e daaa 84be e7ea f7bd a73c c0bd
00000060: 0d45 ddbf af3d 00be 4a40 a3be dfb7 e9bd
00000070: e8d1 5d3e 1e1a d33e b8ce 84be 70ca 3abe
00000080: 25e2 be3e 4245 32bc 923f eabe 8155 8e3d
00000090: 1d49 77be 2f10 b0bd e515 74be fec6 c3bc
000000a0: 235b 94bf aec0 bebe a379 da3c a64b c93e
000000b0: 6d70 993b 0a57 59bf b970 3dbf 3b80 db3e
000000c0: f781 26bf c8c5 773f 606e 6c3d b121 cfbe
000000d0: 7683 17bc d40d 84bf 0a0c 413e 47e1 adbf
000000e0: 5868 82be 43e7 28be 279e 20bf df07 813e
000000f0: 4764 d73e 1457 81bd 81e0 85bf 8f24 ad3e
00000100: 4dc9 58bf d105 a93c aa16 a6bd 96c8 533e
00000110: e239 55bd f47b 3f3d 6d2d c73d a598 393d
00000120: 0931 403f 4d92 d43d abd7 acbd db50 6abf
00000130: 199b f9bb a477 91bc 5dbe 4a3d 68f5 d7be
00000140: 578a a7be fa4e 853f 1fb6 8ebe 0494 923e
00000150: ab3d c43d 5b70 0abf 7666 abbe c836 ba3e
00000160: fcc9 d0bd de52 5f3e 6c5c 35c0 02ff cb3c
00000170: 1218 f6bd 506f 7d3d 8321 943d 4000 1f3f
00000180: 4767 26bf bfe0 7cbd d96e 2e3e fe11 bc3b
00000190: d052 b73e fa3e 563e 4922 483e b8d4 88be
000001a0: 224f 4d3e 1752 08bf 1ae2 6d3d 7a77 3cbf
000001b0: 23c1 b4bd ba34 94bc cc91 45c0 9a16 a53b
000001c0: b767 b83c 0cda 4dbd 86ba c03e be57 35bf
000001d0: 1d53 e23e 4f3d 6f3e 6f19 a9be 4a96 b9bf
000001e0: 042f 3b3e 2b1a 7d3e 65e3 183e dccb a63e
000001f0: b5cb 12bf 3fc9 16be a7b4 6ebe 4996 993e
00000200: cad4 303e decd 943e ff78 593e 8df2 0cbe
00000210: eed0 81be a9a8 4fbe cb7f a3bf d2e4 cabd
00000220: 2de1 813e e088 ad3d 6c1c 173e 85d0 413f
00000230: 9b56 0e3d bdea 04bf 1b6e 01be 3c6a 803e
00000240: 3e59 27be 7031 44bf b04a 0bbf 71f8 12be
00000250: 4eb9 8abe fb1b 22bd fa1c 1e3f 94f2 ffbd
00000260: aecc 3dbf 53e3 1dbe 7e03 67be 501c 9f3e
00000270: 5d7c 1bbf d717 05bd 20cb 81be 5966 433d
00000280: 390e 713d 99c3 033e 961e e73e 7d93 c0be
00000290: c988 cdb9 b19d d33e ab35 55be 75ea 28be
000002a0: ff0f ce3e e532 02bd 1b4b 1cbf 9942 93be
000002b0: e064 f53d 9268 82bd f317 27be 1c73 823d
000002c0: f79e d23d 0f93 f6be 97fd e0be 03b2 a7be
000002d0: fbc2 c2bd 7975 303f 4e9e 803d c2de 18be
000002e0: bb2a 99bb 1069 a53e 238b 623c c9b6 71be
000002f0: 2347 30be f0b8 aa3d cf1b 42bc 044b a0bd
00000300: e82c 243d 84d9 043d 1898 343d e24d ddbd
00000310: 36fe 4c3e f221 23be 089a d6be c762 04bd
00000320: 276d 6c3e 9ce2 493d 1145 a6be bc0e c73d
00000330: a2c7 27be 785e a33d 93f2 bebe 7e1f 01be
00000340: e777 2e3f 42e4 64bf aab4 39be cde9 febe
00000350: 2695 173e 70f0 e7bd 8b71 123e 912a 523c
00000360: bba7 a2be 5545 a2bd 3779 93be 69bf e4bd
00000370: fc28 f03e cef6 b7bd 0b57 12bc f464 94bd
00000380: 2c60 e23b e9ce c03d a0a6 a73e 1ead 07bd
00000390: d4b4 34bf 5314 b63e 8549 54be bac4 3b3e
000003a0: de23 763e 0f4c 013e 4d58 2a3d 8ff5 bc3c
000003b0: ccd5 4d3f 42a9 db3c a8cf 24bf c3b6 c1bd
000003c0: 65c6 41be 1f0a 22bd 88b2 05bf 150b ecbc
000003d0: d3b8 893b 14b9 babd bf6c 29be c879 9dbd
000003e0: 1a0b 12bf a5d3 4cbf 6728 483e 9e96 9ebd
000003f0: 3f5f ca3f 61d5 c6bd 0726 8d3e 6a4b 303e
-0.16935843 -0.030640012 -2.3771706 0.096938424 -0.5222621 -0.13179527 -0.13088171 0.12946564
-0.42625138 0.21688499 0.12858076 -0.002763976 0.25953966 -1.2686787 0.21440233 -0.26454577
0.25925234 -0.5002458 0.16774267 -0.9735482 0.13550308 -0.259116 -0.12105351 -0.093865685
-1.7286698 -0.1252353 -0.31884986 -0.11412024 0.21662104 0.41230863 -0.25938964 -0.18241286
0.3728191 -0.01088077 -0.45751625 0.06949902 -0.24148984 -0.08596837 -0.23836477 -0.023898598
-1.1590313 -0.37256378 0.026669329 0.39315528 0.0046825917 -0.84898436 -0.74000126 0.4287127
-0.6504206 0.96786165 0.05772245 -0.40455392 -0.009247651 -1.031672 0.18852249 -1.3584374
-0.25470233 -0.1649447 -0.6274132 0.25201318 0.42068693 -0.06315437 -1.0459138 0.33816954
-0.8468216 0.020632656 -0.081097916 0.20681986 -0.052057154 0.04674907 0.09725461 0.04531159
0.7507482 0.10379467 -0.08439573 -0.91529626 -0.007617366 -0.017757244 0.04949795 -0.42179418
-0.32722732 1.0414727 -0.27873322 0.28628552 0.09582075 -0.5407769 -0.3347661 0.3636992
-0.101947755 0.21808955 -2.833766 0.02490187 -0.1201631 0.061873734 0.07232954 0.62109756
-0.6500134 -0.061737772 0.17034473 0.0057394495 0.35805368 0.20922461 0.19544329 -0.26724792
0.20049718 -0.5325026 0.058076955 -0.73619807 -0.088259004 -0.018091548 -3.0870237 0.0050380947
0.022510393 -0.050256774 0.37642306 -0.7083701 0.44204035 0.23363231 -0.33027217 -1.449899
0.18279654 0.24717014 0.14930494 0.32577407 -0.5734208 -0.14725207 -0.23311101 0.2999747
0.17268673 0.29063314 0.21237563 -0.13764401 -0.25354713 -0.20279182 -1.2773374 -0.09906925
0.25367108 0.084733725 0.14756936 0.757088 0.034750562 -0.5192068 -0.12639658 0.2508105
-0.16342637 -0.76637936 -0.5441084 -0.14352585 -0.270945 -0.039577466 0.61762965 -0.1249744
-0.7414044 -0.15418749 -0.22559926 0.31076288 -0.6073664 -0.03249344 -0.25350285 0.04770503
0.058851454 0.12867583 0.45140523 -0.37612525 -0.0003920256 0.41331246 -0.20821254 -0.16495688
0.4024658 -0.031786818 -0.610521 -0.28761747 0.11982131 -0.063676015 -0.1631773 0.063696116
0.102842264 -0.48159072 -0.43943474 -0.32753 -0.09509846 0.6892925 0.06280194 -0.14928725
-0.0046742833 0.3230672 0.013827118 -0.23604883 -0.17214637 0.08336055 -0.01184745 -0.07826808
0.04008189 0.032434 0.04409036 -0.108058706 0.20018849 -0.15930918 -0.41914392 -0.032320764
0.23088513 0.049288377 -0.32474568 0.09719607 -0.16384748 0.07977003 -0.37294444 -0.1260967
0.68151706 -0.89410794 -0.18135324 -0.4978775 0.1480299 -0.11325157 0.14301126 0.012827531
-0.31768593 -0.0792338 -0.28803417 -0.11169321 0.4690627 -0.08982621 -0.0089318855 -0.07245818
0.0069084372 0.09414465 0.32744312 -0.03312408 -0.7058842 0.3556238 -0.2073117 0.18336764
0.2403712 0.1262667 0.041588116 0.02306631 0.80404353 0.026814107 -0.6437936 -0.09458687
-0.18923338 -0.039560433 -0.5222554 -0.028813878 0.004202941 -0.09117332 -0.1654539 -0.076892436
-0.5704819 -0.80010444 0.19546662 -0.07743572 1.5810317 -0.097086675 0.27568075 0.17216268

fc4.bias f4 [128]
00000000: 7aaf 483e 340c 21be 9d1d 6e3d 2ab0 40be
00000010: 8016 2ebf f25a a03e 712f 3cbe 0cb6 973d
00000020: 5124 0bbc d716 9e3d 7603 c6be 6b2d 2bbe
00000030: 7de9 58bd 5c8f 563e dbb0 ed3d 44e7 26be
00000040: 6e16 3cbe 8048 b13e 25bb 8e3d 3cd4 f0be
00000050: 1375 14bf d914 59be 7d71 d3be a3f7 bb3e
00000060: e4f1 823e b4cc afbe 6f8a e0bd 6d3d 023e
00000070: 1ba3 473e a973 863d 7c53 93bd e2c8 e7bb
00000080: 3f46 66be cdc3 e13e e2d8 bb3d 43df 68be
00000090: ea7c aa3e aadc f43e 5f61 1ebe c586 d1bd
000000a0: 2128 593e d539 2ebe ae01 dabd 855a 3f3e
000000b0: 5af2 30bd 1919 b43d d58a 903e d292 59be
000000c0: f346 30be 3708 253c 0058 a3be 0155 1bbe
000000d0: 5d75 dbb8 9dc8 da3d 0831 243e 4005 bdbc
000000e0: 9e36 b3be 4ede 983d 8da4 4f3e b7b7 9d3d
000000f0: 07f2 8f3c 950f 38bd 7301 9b3e 6299 83bd
00000100: 06fb 683e d404 16bf 458a eb3d b9ba 3ebd
00000110: 730b c7be 7445 52be b2b8 1bbe 1107 2ebf
00000120: 7e1c 3ebe cbb9 afbe 7a37 953e 7370 53be
00000130: f5ac 2c3d 5cac 3ebe 7767 653e 108a aa3d
00000140: c4d6 b7bd 7682 423d 635f 683e 2424 c23d
00000150: a535 2bbe b854 143e fb3f 15be 1c59 c4be
00000160: cacb f5be 513c 1c3f 9efe 2c3e 369b d5bc
00000170: 0145 19bf 6e1b f83c 580b 943d e96f 5d3d
00000180: d03a 25be acb2 d5be 6d10 2ebd 48ad 51be
00000190: 3761 04be f042 5e3e a984 c3be 6cf4 fcbc
000001a0: 9994 0d3e 162f 663e 6154 5cbc 16e9 3abe
000001b0: baa9 9cbd 2e71 a73d 1775 9abe 2669 3b3e
000001c0: a811 debd 2c43 0cbe 9828 a13d ddec bf3d
000001d0: 8ecb 333c 8c8a 9ebe 6f8f 293e 8447 3f3e
000001e0: 3757 823e 07f9 21bf 3d48 613d f678 47be
000001f0: eced a03d d88d 0b3e 6aed 30be be18 0fbf
0.19598189 -0.15727311 0.05813371 -0.18817201 -0.6800308 0.31319386 -0.18377472 0.074077696
-0.008492545 0.077192 -0.38674515 -0.16716544 -0.052957047 0.20953125 0.11605998 -0.16299158
-0.18367931 0.34625626 0.06969289 -0.47036922 -0.5799114 -0.21199359 -0.41297522 0.3671237
0.25575173 -0.34335864 -0.10963904 0.12718745 0.19495814 0.06565029 -0.07193658 -0.0070735076
-0.22487734 0.44094697 0.091722265 -0.22741418 0.33298427 0.47824603 -0.15466832 -0.102307834
0.21206714 -0.17014249 -0.106448516 0.18686874 -0.043199874 0.087938495 0.2823092 -0.21247414
-0.17214565 0.010072759 -0.31903076 -0.15169145 -0.000104645944 0.10682795 0.16034329 -0.023073792
-0.35002607 0.07464276 0.20277615 0.077010565 0.017571462 -0.044936735 0.30274543 -0.0642574
0.22752008 -0.5860112 0.11500982 -0.04656479 -0.38875923 -0.20534307 -0.15207174 -0.6797953
-0.18565556 -0.34321436 0.29143888 -0.20648365 0.042157132 -0.18620437 0.2240275 0.083271146
-0.0897651 0.0474877 0.22692637 0.094795495 -0.16719683 0.14485443 -0.14575188 -0.38349235
-0.4800704 0.61029536 0.16894004 -0.026074987 -0.59870917 0.030286517 0.07228726 0.054061804
-0.16135716 -0.41737878 -0.042496134 -0.20476258 -0.1292771 0.21705222 -0.3818715 -0.030878268
0.13826217 0.224789 -0.013447852 -0.18252978 -0.0764956 0.08175884 -0.30167457 0.1830183
-0.108432114 -0.13697499 0.07869071 0.0937135 0.010973824 -0.30965078 0.16558622 0.18679625
0.25457165 -0.6327061 0.055000532 -0.19479737 0.0785788 0.13628328 -0.17278066 -0.5589713

fc5.weight f4 [61, 128]
00000000: 256d 1e3f a316 753d 31be ce3b f14a 313d
00000010: fa91 ebbd 3cd9 9bbc 8d6a 5b3d 3286 e7bd
00000020: b54a 293e d3f2 efbd d7ff 5bbb b846 cebc
00000030: 9b6a 71be c4e1 453e 1fcb 48be 025e 6abd
00000040: 286b cd3d 77e6 abbd 6a43 f43d 1710 423d
00000050: be39 4f3d c942 c5bd ed06 63be 5fa5 fbbc
00000060: 228f 8a3e d076 22bc b684 75bd 5cb1 123b
00000070: 198e df3e e903 13bc 56ba 5e3c 797b 28be
00000080: 5787 3b3e cf63 66be b02c 983e 3d1f a63d
00000090: 87ad 5bbd 6f51 ca3d b908 4ebe 60b9 d13d
000000a0: 8fcc d5bd 2155 0e3e c0f1 0dbe fa8e e03b
000000b0: cb8f dd3d 1297 ffbd 4c11 f5bd 543d e8bd
000000c0: 4e3a adbb e366 233e 1e51 bc3d 2bdd 473c
000000d0: bf6c 373b 8e3a 0cbe 7ba9 1abd 0e2d 413d
000000e0: 970e 6bbe f6d4 53be 1b00 143d 662d a43d
000000f0: b804 7bbe b7d6 bebb 6aa9 33bc 7ff9 8bbd
00000100: 3733 43be 50f4 c7bd b750 d63d 6831 a93e
00000110: 40f8 98bd 0db2 973e 2bdd 77bd ba49 f43d
00000120: 0edb 373e adf6 47bd f0b7 383d fe00 1d3e
00000130: ab9a 6a3d 8120 c1bc efbc 8d3d 7abd c3bd
00000140: 2bbd 223c ac40 32be 5095 443d b4c5 d23d
00000150: 796c e93c 7ce6 a7bd 8b12 bebd d5e5 b23d
00000160: 357e 13be a98c 153e 7b66 0bbe c653 643d
00000170: e800 eabb ed59 2bbd 1937 80bd 5ab9 b53e
00000180: 625b 163e 9dbd 59be 90ee b0bd 8a0d dcbd
00000190: 0511 da3d 7020 623e 3446 f2bd e116 fdbd
000001a0: ef83 08be caee 4f3e 4a99 16bd b8da dc3d
000001b0: a0c0 8a3d 449b 743d 608f 633e fd45 313e
000001c0: 9beb 563e 9bd6 743d 1d08 debd 03f4 7f3e
000001d0: 4941 a93c 6511 0b3d d381 623d 0c29 a43e
000001e0: dc8e 353e 4b21 2dbe 0de4 1a3d eab7 2cbe
000001f0: 51d5 063d 26f1 e8bd 1f07 623c 929e c2bd
00000200: 583b 4d3c 4d0d 883d 8bd1 b23c 640d 23bd
00000210: eb01 8f3d 6671 78bd 73a5 383c 5fd5 93bc
00000220: 6bda c6bb 72b5 173c 19ec ac39 d58e 5a3a
00000230: e0e1 12bd ea5d 813e e43f 943d 2ac4 1d3d
00000240: 30a8 75bd 70bb 6cbd 6956 91be e86f 4d3d
00000250: 8034 d03d 8393 513d 166f 623e 9600 713c
00000260: c2ab ac3b 4d06 92bc 33c5 483d 044a 11be
00000270: c1ff b2bc eb13 c73c d000 a03e e59b 5e3d
00000280: 89aa 90bd 4867 0cbd 3b04 38be 904e 2fbd
00000290: 13ef d8bd fecb 5abe d404 dcbd c553 25be
000002a0: a65f a33d f310 8ebc 0f36 15bd ee8d 1cbe
000002b0: 680a 33bd 28e4 1b3b 3c4f 383d 65cb 8e3d
000002c0: 63a6 acbd a53a 3f3e 9ae2 83be c49a 29bd
000002d0: 8203 4d3e 46b0 173e f1c2 0bbd 5fbf e8bd
000002e0: 9f42 973d ea94 60bb b1a0 f6bd 5f32 66bd
000002f0: 4154 a8bd 17bd c43d dcbe bdbe 578f 6b3b
00000300: 262c cb3d 0784 dbbd 6a23 cbbc 5117 04bd
00000310: 5ac1 19bd a010 e83c f14c e7ba fa87 5c3b
00000320: d576 c73c 3345 39bd b458 9fbc 8afc 43bd
00000330: 12df 96bd 70f5 e63c df65 72bd fe49 3d3b
00000340: c27f 75bd a29a 223e b55a b13b cf54 7fbd
00000350: 1cca 73bd a424 65bb 53f5 1dbd c01c 393d
00000360: f7fd 80bd 2792 dabd ae9e 343d 5ecc a93b
00000370: e65e 123d 7a97 8e3b c123 643b eb65 fbbd
00000380: c2a9 1c3c df92 5b3d 5302 eebd 3f84 0abd
00000390: 993b 24be 37b9 01be 9acd 00bd 813b 1e3d
000003a0: 616b eb3c 287f 76bc ccbb a13d 00c1 a3ba
000003b0: 6a08 f3bd 3510 b9bb 1020 b03d 9a84 bdbd
000003c0: 011c 78bd 030a db3d 102a 6a3d 5824 773c
000003d0: 27d4 d33d 8816 913d 80f4 37bb e77c 94bc
000003e0: bfb0 683d 2b06 1c3d 17f7 2abc 304f 5a3e
000003f0: 088b ffbc 83f6 963c bb12 533d b263 6f3d
0.6188529 0.05983604 0.0063092937 0.04328436 -0.11502452 -0.019024484 0.05356841 -0.113048926
0.16532405 -0.11716237 -0.003356924 -0.025180206 -0.23575823 0.19324404 -0.19608735 -0.05721856
0.10030204 -0.08393567 0.11926921 0.047378626 0.050592177 -0.09631879 -0.2217061 -0.030718504
0.27062327 -0.009916022 -0.059941016 0.0022383546 0.436631 -0.0089731 0.013594231 -0.16453351
0.18313347 -0.22499011 0.29721594 0.08111427 -0.053632285 0.098788135 -0.20120515 0.102404356
-0.10439407 0.13899662 -0.13861752 0.0068529816 0.10818442 -0.12479986 -0.1196619 -0.113398224
-0.0052864915 0.15957217 0.091951594 0.012198727 0.0027988402 -0.13694212 -0.037759285 0.047162108
-0.22954784 -0.20686707 0.036132913 0.080164716 -0.24513519 -0.005823936 -0.010965684 -0.06834697
-0.19062506 -0.09763396 0.10464614 0.33045506 -0.07469225 0.2962803 -0.060513657 0.11928125
0.17954656 -0.048819233 0.04509729 0.1533241 0.05727641 -0.02357507 0.06920802 -0.09557624
0.0099327965 -0.17407483 0.047993958 0.10291615 0.028494107 -0.08198258 -0.092808805 0.08735243
-0.14403613 0.14604439 -0.13613312 0.055743955 -0.0071412213 -0.041833807 -0.06260509 0.35492975
0.14683297 -0.21263738 -0.08639252 -0.1074477 0.106477775 0.22082686 -0.118297964 -0.123578794
-0.13331579 0.20305935 -0.03676728 0.10783905 0.067750216 0.059718385 0.22222662 0.17311855
0.20988314 0.059774976 -0.10841391 0.24995427 0.020661013 0.033952136 0.05529959 0.32062566
0.17730278 -0.16907232 0.037815142 -0.16867033 0.032918278 -0.113741204 0.013795643 -0.09502901
0.012526356 0.06643162 0.021828433 -0.039807692 0.06982788 -0.06065502 0.011269915 -0.01804608
-0.006068518 0.0092595685 0.00032982303 0.00083373237 -0.035859942 0.25266963 0.07238749 0.038517155
-0.05997485 -0.05779594 -0.28386238 0.05015555 0.101662636 0.05116607 0.22112688 0.014709612
0.0052694986 -0.01782527 0.04901619 -0.14188391 -0.021850469 0.02430149 0.3125062 0.05434789
-0.07063777 -0.034278184 -0.17970364 -0.042799532 -0.10592475 -0.2136688 -0.107431084 -0.16145237
0.07977228 -0.017342066 -0.036428507 -0.15288517 -0.043711096 0.0023787115 0.04499744 0.06972388
-0.08430173 0.18674715 -0.2575882 -0.04140736 0.2002087 0.14813337 -0.034121457 -0.11364626
0.07385754 -0.0034268447 -0.12042368 -0.05620038 -0.08219195 0.096063785 -0.37059677 0.0035943592
0.0992053 -0.107185416 -0.02479716 -0.0322488 -0.03753791 0.02832824 -0.0017646832 0.0033650384
0.024348656 -0.04523201 -0.019451477 -0.047848262 -0.07366766 0.028193206 -0.059179183 0.0028883214
-0.059936292 0.158793 0.0054124244 -0.06233674 -0.05951892 -0.0034964466 -0.038564038 0.045193434
-0.0629844 -0.106724076 0.04409664 0.005181833 0.035735033 0.0043515535 0.003481135 -0.12275299
0.009561958 0.053606864 -0.11621537 -0.033817526 -0.1603836 -0.1266831 -0.031446077 0.038630966
0.028737726 -0.015044965 0.078971475 -0.0012493432 -0.11866839 -0.005647684 0.085998654 -0.09253807
-0.06057358 0.10695269 0.05716902 0.015084349 0.10343199 0.070843756 -0.0028069317 -0.018125964
0.056809183 0.03809182 -0.010434887 0.2131927 -0.031194225 0.018428093 0.051531535 0.058444686

fc5.bias f4 [61]
00000000: b00b 8f3e 7bad 07bf eb5d 4cbe 63a7 1e3e
00000010: 8552 00be d00d adbd a0fe 923c e40e 74be
00000020: 4f18 f73b 3022 1abe cc3a 0ebb 92c5 133c
00000030: 8797 39be 1d60 363e a777 123e fe4b 5e3e
00000040: dc7c 0abd 404f d83d b7a4 8b3e 54f3 54bc
00000050: 4bf7 b93d f598 a53e f5a7 5abe b7f1 7cbd
00000060: 7bb0 0dbd 0ab0 9abe e46c 4ebd 2739 f7bd
00000070: d1b1 bcbd 2eaa 1ebe 4956 ef3d c3e0 9abc
00000080: 9e39 823d f1a1 1dbe d297 02be 4702 4f3d
00000090: cd82 dabd b2ef bdbd 37d8 ffbb 5a92 17bb
000000a0: ea91 743d b746 1fba 1e0f 613c 7893 c8bd
000000b0: 921f cc3a 1fc3 99bd 6ae9 523d e7bb 7cbd
000000c0: d3d2 99bc 3404 3cbd a4a2 3c3d 0d8f c6bd
000000d0: 00ea 55bd 9e25 d0bc 9792 1cbe 3718 063c
000000e0: 0934 b53d 440b 0dbe c6e7 97bd fa13 443d
000000f0: 96dd eebd
0.27938604 -0.52999085 -0.19957702 0.1549354 -0.12531479 -0.084499 0.01794368 -0.23833805
0.0075407396 -0.15052104 -0.0021702526 0.009019272 -0.1812421 0.17810102 0.14303456 0.21708676
-0.03381048 0.10561991 0.27274105 -0.012997467 0.090803705 0.3234326 -0.21353133 -0.061753955
-0.034592133 -0.30212432 -0.050396815 -0.12071448 -0.09213603 -0.15494606 0.116863795 -0.018906003
0.06358646 -0.15393807 -0.12753227 0.05053928 -0.106694795 -0.09274234 -0.0078077572 -0.0023128004
0.059709467 -0.0006075906 0.013736514 -0.097937524 0.0015573374 -0.075079195 0.051492132 -0.061702635
-0.018777287 -0.045902446 0.046053544 -0.096952535 -0.052225113 -0.025408562 -0.15290295 0.008184484
0.088478155 -0.13773829 -0.07417254 0.047870614 -0.11663358
