model_training/model_rotated.pth (torch, 355660 bytes, 10 tensors)

fc1.weight f4 [64, 91]
-0.015913809 0.7066282 -0.0836657 0.12261328 0.12270166 0.618185 -0.6841347 0.120274946
0.7311815 0.25914207 0.10763376 0.1858685 -0.41971275 0.0190119 0.02240875 0.0072922106
0.119502105 -0.36377728 -0.5317459 -0.33897552 0.18665399 0.5725006 -0.22175545 0.14088853
-0.3645497 0.11821794 -0.13327709 -0.56242746 0.02695518 0.28813416 -0.20651035 0.211295
-0.13519737 0.23757869 -0.1887381 -0.22673947 -0.26558936 -0.033071797 -0.37507728 0.018648865
0.1441412 0.08105333 -0.09013842 0.11032251 0.31068695 0.46876794 0.25675642 0.13703726
0.04972955 0.06591612 0.6448258 0.19080578 0.20698361 0.25771204 0.06765634 -0.065371856
0.14833198 0.08107764 -0.026610577 -0.13916703 0.0049739145 -0.18189396 -0.19486775 -0.05511134
0.06884572 0.15823714 0.096298635 -0.25145814 -0.028293798 0.14490329 0.15875758 0.14833705
-0.08444101 -0.18111232 0.004075184 0.060112007 0.10994843 0.078529984 0.2974095 -0.09375739
0.019658243 0.12091086 -0.117684275 0.0949604 0.04902946 -0.06684737 0.03296261 -0.0060526147
0.13468052 0.17750634 -0.28586885 0.06817373 1.0767615 -0.6259162 0.15771858 0.3502728
-0.56555206 0.57611424 0.14383696 -0.3214927 -0.045775186 0.29134455 0.48239583 -0.24856794
0.09602157 -0.023377795 -0.13327189 -0.024774078 0.08836439 -0.13733993 0.12614119 -0.33966818
0.18369083 -0.18851866 0.030761203 -0.16470315 0.009014278 0.55527425 -0.18184644 0.27589318
-0.44217566 -0.12056631 0.061908066 -0.029882893 0.17099443 -0.3507012 -0.3486012 -0.28990862
-0.22249071 -0.12079747 0.07512594 -0.21981847 0.07775048 0.1895853 -0.4877548 -0.15789703
0.11574251 -0.022699574 0.124579065 -0.043109003 0.18578698 0.123258516 -0.15777254 -0.22124588
0.534929 -0.27006385 0.3375664 -0.014868303 -0.3163708 -0.05640712 -0.21449743 -0.033929206
-0.17587826 0.10658368 0.10839697 0.12837061 0.09493299 -0.19169433 0.15631591 0.04869943
0.2902211 0.0744048 0.075279094 -0.0813157 0.059231553 -0.06352437 0.3158842 0.20225401
0.09301084 -0.43413875 -0.37099728 -0.025854468 0.1026596 0.24131224 0.14804749 0.010602024
0.020373972 -0.14978462 -0.092966326 -0.065494955 0.15971047 -0.033686623 0.8607316 0.7302707
-0.092446476 0.0104376655 0.27687082 0.5065627 0.06227447 -0.30947855 0.1330128 0.241251
-0.06166836 0.54012614 0.19050135 -0.15402952 0.36550456 0.25420833 -0.47733262 0.20914142
0.3581995 -0.7142116 -0.5988991 -0.34206435 -0.19236739 -0.34715125 -0.17207389 -0.264668
0.2846009 0.15266639 -0.07261294 0.28069296 0.04641858 0.2735731 -0.3408586 -0.28452876
-0.21312767 0.35654044 0.13913156 0.06842636 0.005606532 -0.09317896 0.19388524 0.18241562
0.11582742 -0.30175194 -0.06788292 -0.3331034 -0.044130374 -0.263869 0.14518759 -0.390734
0.42879432 -0.017088536 0.07634139 -0.057105053 0.19293404 -0.116072014 -0.22004834 -0.2837831
0.10533822 -0.14072393 -0.4444229 -0.008754343 0.11018097 -0.2964906 0.11598804 -0.15581004
0.31675714 0.20920365 -0.12181832 -0.14738967 -0.21609032 -0.14065179 0.05184552 -0.23153776
00000000: ad5d 82bc 96e5 343f ec58 abbd ac1c fb3d
00000010: 024b fb3d 5f41 1e3f 7423 2fbf b652 f63d
00000020: b62e 3b3f 45ae 843e 176f dc3d 5054 3e3e
00000030: 97e4 d6be d8be 9b3c 8e92 b73c 7ff3 ee3b
00000040: 85bd f43d 0441 babe 8020 08bf 338e adbe
00000050: 3922 3f3e 668f 123f dc13 63be 1545 103e
00000060: 42a6 babe 3f1c f23d ca79 08be 3ffb 0fbf
00000070: 1cd1 dc3c 5286 933e 7377 53be b75d 583e
00000080: 2e71 0abe d447 733e 8f44 41be 642e 68be
00000090: 54fb 87be 4b76 07bd 210a c0be 81c5 983c
000000a0: c099 133e 4aff a53d 7e9a b8bd c5f0 e13d
000000b0: 5c12 9f3e 5a02 f03e 9475 833e 7f53 0c3e
000000c0: 36b1 4b3d 08ff 863d 4e13 253f 9762 433e
000000d0: 83f3 533e d5f2 833e 688f 8a3d aee1 85bd
000000e0: 57e4 173e 090c a63d 6dfe d9bc cd81 0ebe
000000f0: 38fc a23b 6942 3abe 698b 47be 6ebc 61bd
00000100: fcfe 8c3d eb08 223e 3838 c53d 1fbf 80be
00000110: 65c8 e7bc 8761 143e 5991 223e abe5 173e
00000120: 69ef acbd 8275 39be 1f89 853b 0238 763d
00000130: a42c e13d 54d4 a03d 0f46 983e e003 c0bd
00000140: 530a a13c 1da0 f73d 7404 f1bd 997a c23d
00000150: 1dd3 483d 46e7 88bd cd03 073d 0355 c6bb
00000160: b1e9 093e 39c4 353e 675d 92be ab9e 8b3d
00000170: 52d3 893f 0b3c 20bf fb80 213e f556 b33e
00000180: 05c8 10bf 397c 133f ff49 133e b19a a4be
00000190: c37e 3bbd 1d2b 953e 96fc f63e 9888 7ebe
000001a0: f5a6 c43d ca82 bfbc 6d78 08be 02f3 cabc
000001b0: 64f8 b43d d7a2 0cbe 282b 013e fde8 adbe
000001c0: 7319 3c3e 090b 41be ebfe fb3c f1a7 28be
000001d0: 9fb0 133c 7426 0e3f f435 3abe df41 8d3e
000001e0: d964 e2be 78eb f6bd 5093 7d3d f8cc f4bc
000001f0: 2a19 2f3e 1c8f b3be db7b b2be e76e 94be
00000200: 9bd4 63be aa64 f7bd a1db 993d 1818 61be
00000210: a53b 9f3d a622 423e ffba f9be c2af 21be
00000220: 690a ed3d 75f4 b9bc 4f23 ff3d 1193 30bd
00000230: f13e 3e3e f66e fc3d 208f 21be 488e 62be
00000240: 1bf1 083f cf45 8abe 81d5 ac3e 2f9a 73bc
00000250: 5afb a1be 270b 67bd 37a5 5bbe 5af9 0abd
00000260: 6e19 34be 8b48 da3d 3bff dd3d 9673 033e
00000270: 3a6c c23d 854b 44be 4711 203e 0e79 473d
00000280: dc97 943e 8b61 983d ed2b 9a3d d988 a6bd
00000290: c99c 723d 1119 82bd 93bb a13e ad1b 4f3e
000002a0: 787c be3d 6f47 debe 5bf3 bdbe c0cc d3bc
000002b0: 323f d23d 8e1a 773e c399 173e 1db4 2d3c
000002c0: 51e7 a63c 2461 19be 2165 bebd 3822 86bd
000002d0: 248b 233e fcfa 09bd e858 5c3f 05f3 3a3f
000002e0: 9454 bdbd be02 2b3c 03c2 8d3e 18ae 013f
000002f0: 8413 7f3d f973 9ebe 8234 083e 810a 773e
00000300: f697 7cbd b545 0a3f c912 433e eab9 1dbe
00000310: 6a23 bb3e 9827 823e f164 f4be 2b29 563e
00000320: ed65 b73e 92d6 36bf 7451 19bf 0f23 afbe
00000330: f5fb 44be cfbd b1be 2334 30be 9082 87be
00000340: 36b7 913e 9454 1c3e 18b6 94bd fdb6 8f3e
00000350: 6921 3e3d c611 8c3e 0585 aebe c1ad 91be
00000360: 243e 5abe 788c b63e 8178 0e3e 1f23 8c3d
00000370: 00b7 b73b 9cd4 bebd da89 463e 29cb 3a3e
00000380: ed36 ed3d 3b7f 9abe 3306 8bbd 878c aabe
00000390: 0dc2 34bd d619 87be 0eac 143e 490e c8be
000003a0: ee8a db3e 42fd 8bbc e058 9c3d fde6 69bd
000003b0: 8090 453e 2ab7 edbd 5a54 61be 054c 91be
000003c0: 91bb d73d ef19 10be 668b e3be 606e 0fbc
000003d0: 8fa6 e13d 9ecd 97be 238b ed3d ab8c 1fbe
000003e0: fe2d a23e 7b39 563e e27b f9bd 51ed 16be
000003f0: c846 5dbe 0607 10be f85b 543d 3c18 6dbe

fc1.bias f4 [64]
-0.260662 -0.22954614 -0.19752191 0.19352366 -0.088888675 -0.22667664 -0.18557888 -0.33324313
-0.38587806 0.2273646 0.12632012 -0.9585998 0.13244817 0.15244444 0.47611505 0.30723315
0.15466762 0.5151085 -0.22969519 -0.1648531 0.33768287 0.063693926 -0.54228413 0.050489083
-0.08001157 -0.31021962 -0.20527263 -0.3311701 0.33778358 -0.12721595 -0.097957164 -0.0738702
-0.2640282 0.035153475 -0.063199945 -0.19759277 0.6374833 0.22234946 -0.13729978 0.25564244
-0.09811442 -0.26957762 -0.116787314 0.3507224 -0.4448005 -0.07686077 -0.11053339 0.13229617
0.45462996 -0.394978 0.27329686 -0.30187243 0.27001625 0.3215198 0.110576436 0.30871966
0.12162319 -0.34496418 0.011241973 0.20363794 -0.055326827 -0.15643914 0.41478398 0.2927353
00000000: 7d75 85be 250e 6bbe 2f43 4abe 112b 463e
00000010: 440b b6bd ec1d 68be 6408 3ebe d89e aabe
00000020: cf91 c5be 44d2 683e 105a 013e cc66 75bf
00000030: 7ea0 073e 651a 1c3e 5ac5 f33e aa4d 9d3e
00000040: 3061 1e3e 27de 033f 3735 6bbe 40cf 28be
00000050: c5e4 ac3e f671 823d 22d3 0abf a4cd 4e3d
00000060: 1bdd a3bd 1bd5 9ebe fd32 52be 218f a9be
00000070: f8f1 ac3e e644 02be c49d c8bd 4249 97bd
00000080: b42e 87be 17fd 0f3d f96e 81bd c255 4abe
00000090: 1b32 233f 94af 633e 5098 0cbe 91e3 823e
000000a0: 37f0 c8bd 1406 8abe 302e efbd e391 b33e
000000b0: e4bc e3be 2e69 9dbd 545f e2bd a678 073e
000000c0: 42c5 e83e 8e3a cabe 91ed 8b3e 068f 9abe
000000d0: 923f 8a3e 3e9e a43e e675 e23d 8110 9e3e
000000e0: 9415 f93d 259f b0be 4130 383c 7786 503e
000000f0: 629e 62bd 9531 20be 915e d43e 67e1 953e

fc2.weight f4 [128, 64]
0.23463327 -0.22682269 0.07426208 -0.12028867 -0.025506485 0.17825432 0.23833132 -0.038327597
0.25641316 -0.05032909 -0.07389976 0.48004937 -0.10988383 0.039191727 0.074332565 -0.11662781
0.28014797 0.06342232 -0.08360447 0.40388137 0.06255045 0.44398832 0.38569534 -0.16765705
-0.50825024 0.09174974 -0.15969075 -0.30421662 -0.5882876 -0.34810337 -0.022491762 0.44939822
-0.008478299 0.0009688944 0.037308574 0.1488555 0.03491354 -0.08220622 -0.36862943 0.053855695
0.028591897 -0.051867157 0.47896227 -0.1597243 0.06206819 -0.11843882 0.122210786 -0.086526215
0.30811623 -0.13434142 0.10802911 -0.1898596 0.13698599 -0.122487225 0.01454162 -0.41514254
0.20131864 0.11230444 0.29944625 -0.14398703 -0.09745081 -0.0055417283 0.050300926 0.033294253
0.14164543 0.66982704 -0.13251583 -0.14127469 -0.46233338 0.16287968 -0.20912983 0.24835493
0.003426903 -0.19272985 -0.21225561 -0.3109395 -0.124248944 -0.103634946 -0.18341851 -0.17389894
-0.0782435 0.27901423 0.07954241 0.28491664 0.4249527 0.010920036 -0.37233275 0.055524968
0.24760628 0.035930302 -0.15084712 0.17997703 0.056685522 -0.12361296 0.18763326 0.067262605
0.032103762 0.034046605 0.08642114 -0.14902078 -0.6166104 0.17932639 -0.2324915 -0.08841256
0.29904664 0.013175162 -0.4073087 0.13131994 -0.12747951 0.00032064278 -0.1322251 0.26094258
-0.28029582 -0.018349456 -0.044404075 0.2853476 0.05839058 -0.38009822 0.2271562 0.31681138
-0.061625265 -0.14278671 -0.009574244 0.070970766 0.48597983 -0.08168486 0.041410413 0.22336498
-0.14073248 0.34654126 0.24341418 -0.21988636 -0.23961368 -0.16382538 -0.19522592 -0.8939798
-0.093579434 -0.34592238 -0.030446813 0.32631385 -0.1359199 -0.42609212 -0.030556716 -0.53698623
-0.22205417 -0.25755683 0.12864612 -0.13654357 -0.41577342 0.20246536 -1.1739799 0.17594346
0.07847216 0.12125679 -0.10046126 0.45813382 -0.8450304 0.3211396 0.26116592 0.26837754
0.09564394 0.5861892 -0.78670007 0.19465835 -0.072536126 0.03625947 0.12946366 0.3901932
0.012610578 -0.16000906 -0.3905506 0.22872317 0.012089158 -0.16900879 0.004545291 -0.36589187
0.15391642 0.14965041 0.056405626 0.055544004 0.1298954 0.08175301 0.34344432 0.034457266
0.54132724 -0.2207135 -0.24339397 0.036966436 0.30032054 -0.13186154 -0.10507259 0.05453782
0.05799756 -0.33053946 0.31369066 0.18681838 0.36572373 0.048938014 0.26032788 0.17654483
-0.67512554 -0.13186936 -0.09058399 0.3684311 -0.25278118 -0.03691247 0.10354106 0.08777702
0.38461766 0.3130735 0.33369023 -0.26679438 0.17959155 -0.12420786 -0.63663405 -0.11649043
0.32361165 -0.18867595 -0.29272333 -0.276397 0.24260789 0.39843062 -0.113182075 -0.22109379
-0.088022694 -0.054645743 -0.12214005 -0.24519213 -0.014306049 0.107805684 0.32943693 -0.02036976
-0.08238385 -0.46811152 -0.10401091 0.103429094 0.17982052 0.10805404 0.19821385 -0.05512264
-0.024915751 -0.4497281 -0.13633722 0.10663171 0.34433812 0.19624203 -0.17562823 -0.58167034
0.20994161 -0.019901099 0.24631405 0.004073277 -0.014236803 0.52084315 0.21995117 -0.19230734
00000000: b443 703e 3544 68be b816 983d e859 f6bd
00000010: faf2 d0bc 4d88 363e 200d 743e 66fd 1cbd
00000020: 9648 833e e025 4ebd c258 97bd 08c9 f53e
00000030: c60a e1bd 8187 203d ac3b 983d 90da eebd
00000040: 8e6f 8f3e 90e3 813d d238 abbd 8ac9 ce3e
00000050: 731a 803d 7052 e33e dc79 c53e 4aae 2bbe
00000060: b01c 02bf 4ae7 bb3d f985 23be 48c2 9bbe
00000070: 049a 16bf 9b3a b2be a540 b8bc 8617 e63e
00000080: 90e8 0abc 67fd 7d3a e0d0 183d 946d 183e
00000090: 8001 0f3d bc5b a8bd ffbc bcbe ca97 5c3d
000000a0: 8e39 ea3c a872 54bd 8b3a f53e c48e 23be
000000b0: 373b 7e3d 0d90 f2bd a649 fa3d a834 b1bd
000000c0: 69c1 9d3e cc90 09be 5e3e dd3d 8e6a 42be
000000d0: 0e46 0c3e 95da fabd fa3f 6e3c 908d d4be
000000e0: 7926 4e3e dfff e53d 0551 993e 5671 13be
000000f0: 4a94 c7bd 6397 b5bb 5808 4e3d 8e5f 083d
00000100: 800b 113e c979 2b3f 3bb2 07be 50aa 10be
00000110: f6b6 ecbe eec9 263e 2126 56be c150 7e3e
00000120: e495 603b f95a 45be 8959 59be 7633 9fbe
00000130: 3b76 febd 8f3e d4bd 10d2 3bbe 9012 32be
00000140: 213e a0bd f4da 8e3e 22e7 a23d 98e0 913e
00000150: 6693 d93e f3e9 323c 66a2 bebe 266e 633d
00000160: 808c 7d3e a72b 133d ab77 1abe e64b 383e
00000170: 142f 683d cb28 fdbd ef22 403e fac0 893d
00000180: 3c7f 033d 7474 0b3d 91fd b03d e798 18be
00000190: 2eda 1dbf 56a1 373e 4012 6ebe a511 b5bd
000001a0: a41c 993e a2dc 573c c48a d0be bc78 063e
000001b0: fd89 02be f21b a839 0466 07be 449a 853e
000001c0: ef82 8fbe 9951 96bc 0ce1 35bd 1519 923e
000001d0: f62a 6f3d 3c9c c2be a39b 683e 1a35 a23e
000001e0: c66a 7cbd ae36 12be 4add 1cbc 1f59 913d
000001f0: 59d2 f83e 644a a7bd f79d 293d cab9 643e
00000200: 2d1c 10be db6d b13e 9141 793e e429 61be
00000210: 4a5d 75be d7c1 27be 4ee9 47be dcdb 64bf
00000220: 93a6 bfbd bd1c b1be 986b f9bc 9c12 a73e
00000230: 962e 0bbe bf28 dabe 1452 fabc ee77 09bf
00000240: 2b62 63be 7dde 83be cfbb 033e 14d2 0bbe
00000250: 41e0 d4be 1453 4f3e f944 96bf 862a 343e
00000260: 03b6 a03d 7b55 f83d a2be cdbd 8490 ea3e
00000270: ea53 58bf 696c a43e 8ab7 853e c868 893e
00000280: f8e0 c33d 7f10 163f 2d65 49bf 8554 473e
00000290: d28d 94bd cf84 143d 1f92 043e 67c7 c73e
000002a0: 999c 4e3c 6ad9 23be 40f6 c7be 6836 6a3e
000002b0: 9b11 463c a410 2dbe aaf0 943b 2e56 bbbe
000002c0: 449c 1d3e f53d 193e 9609 673d 1c82 633d
000002d0: 4d03 053e 1f6e a73d efd7 af3e 1023 0d3d
000002e0: 6c94 0a3f b802 62be 453c 79be 1e6a 173d
000002f0: 9dc3 993e b606 07be 4c30 d7bd 0d63 5f3d
00000300: d98e 6d3d 783c a9be 109c a03e 514d 3f3e
00000310: 2440 bb3e 3a73 483d b249 853e 2bc8 343e
00000320: 07d5 2cbf c308 07be 1984 b9bd 00a3 bc3e
00000330: 896c 81be 8831 17bd 560d d43d 70c4 b33d
00000340: 9bec c43e 2b4b a03e 72d9 aa3e 4699 88be
00000350: d9e6 373e b160 febd 73fa 22bf 8992 eebd
00000360: 6db0 a53e 4534 41be d5df 95be e883 8dbe
00000370: 346e 783e 19ff cb3e 01cc e7bd 6966 62be
00000380: 3e45 b4bd 37d4 5fbd 9024 fabd a513 7bbe
00000390: eb63 6abc 3ac9 dc3d f5ab a83e 7cde a6bc
000003a0: ddb8 a8bd 50ac efbe ac03 d5bd a2d2 d33d
000003b0: df22 383e 704b dd3d 92f8 4a3e 47c8 61bd
000003c0: 1e1c ccbc c342 e6be fc9b 0bbe ba61 da3d
000003d0: 164d b03e acf3 483e e3d7 33be 59e8 14bf
000003e0: effa 563e a107 a3bc c039 7c3e 2079 853b
000003f0: 7b41 69bc fa55 053f e13a 613e 37ec 44be

fc2.bias f4 [128]
-0.15739882 0.23935175 -0.4431615 0.06256961 -0.40625754 -0.55887586 -0.4679296 0.14036433
0.23855427 0.06800681 -0.26720524 0.9480296 0.15092604 -0.27859268 -0.59391767 0.47680825
0.41567641 0.3823111 0.37583283 0.3772413 0.6309093 0.10730878 -0.36704907 0.21289058
-0.43290305 0.32416385 -0.09336027 0.48538515 -0.1639898 0.29580203 -0.734761 0.40279728
-0.016300665 -0.13567905 0.242229 0.5923172 -0.055694588 -0.94029534 0.44973317 0.020431386
-0.116359666 -0.06509748 0.20601182 0.5197143 0.16621654 0.32803512 -0.15903738 0.45945755
0.29215395 -0.18763767 -0.15521206 -0.42868882 0.040803947 0.29245186 -0.68683374 -0.14612845
-0.31619594 0.7392901 0.3160693 0.54128057 -0.12711483 -0.07344835 0.69187766 0.36528885
0.24224494 -0.2783302 -0.084334835 0.45733595 0.086915284 0.050391223 0.17063592 -0.19675705
-0.3956288 -0.08221308 -0.43171024 0.089550935 0.093492806 -0.41293362 -0.27197346 0.11107514
0.2926882 0.19518489 0.3306916 0.71013206 -0.48494467 0.112024546 -0.04663055 0.36461154
0.038701124 0.28060955 0.027061788 -0.02720464 0.5338186 -0.36089924 0.5876461 -0.43599674
-0.33369517 0.14678931 -0.5539531 -0.5589977 -0.3873969 -0.16543224 -0.8113116 -0.14511132
-0.142764 0.39960307 0.24672638 0.30352277 -0.020655017 -0.5112383 -0.34608343 0.50185007
0.62315226 0.2595246 -0.042341083 0.7571784 -0.4609473 -0.18471013 -0.09619678 0.8341699
0.25343418 0.2554828 0.49223197 0.075537354 -0.16472983 0.70401233 -0.30928227 -0.05165657
00000000: 282d 21be a018 753e 10e6 e2be 7f24 803d
00000010: fd00 d0be 7d12 0fbf 7894 efbe abbb 0f3e
00000020: 9247 743e 2847 8b3d 20cf 88be 11b2 723f
00000030: 5b8c 1a3e b3a3 8ebe fd0a 18bf 3620 f43e
00000040: 8ad3 d43e 48be c33e 296d c03e c625 c13e
00000050: 4683 213f b5c4 db3d dbed bbbe fdff 593e
00000060: 78a5 ddbe cef8 a53e ab33 bfbd 6784 f83e
00000070: f1ec 27be 5d73 973e 4c19 3cbf 723b ce3e
00000080: f988 85bc 73ef 0abe e10a 783e 1aa2 173f
00000090: 0220 64bd 32b7 70bf 6d43 e63e b95f a73c
000000a0: fa4d eebd d451 85bd c3f4 523e ff0b 053f
000000b0: ab34 2a3e 38f4 a73e b2da 22be 053e eb3e
000000c0: 3495 953e 1724 40be e9ef 1ebe 1a7d dbbe
000000d0: 0a22 273d 40bc 953e 56d4 2fbf b2a2 15be
000000e0: 6fe4 a1be 1e42 3d3f d6d3 a13e 5d91 0a3f
000000f0: 642a 02be 176c 96bd e51e 313f 2407 bb3e
00000100: 0f0f 783e 4c81 8ebe beb7 acbd f027 ea3e
00000110: a400 b23d 0767 4e3d 2fbb 2e3e ae7a 49be
00000120: dc8f cabe 555f a8bd 2009 ddbe 7b66 b73d
00000130: 2879 bf3d 096c d3be 1b40 8bbe 5d7b e33d
00000140: 3adb 953e 8cde 473e 6950 a93e 37cb 353f
00000150: ab4a f8be 206d e53d adff 3ebd 5dae ba3e
00000160: 1285 1e3d 0eac 8f3e afb0 dd3c 44dc debc
00000170: 56a8 083f c9c7 b8be fa6f 163f f73a dfbe
00000180: 18da aabe f04f 163e dfcf 0dbf 791a 0fbf
00000190: e358 c6be 1267 29be 1eb2 4fbf 1098 14be
000001a0: ba30 12be c698 cc3e d7a5 7c3e 5667 9b3e
000001b0: b634 a9bc 83e0 02bf d931 b1be 3f79 003f
000001c0: e886 1f3f 69e0 843e d86d 2dbd 72d6 413f
000001d0: 4901 ecbe a724 3dbe d102 c5bd 298c 553f
000001e0: 20c2 813e a4ce 823e d405 fc3e 54b3 9a3d
000001f0: f0ae 28be 273a 343f 3f5a 9ebe d795 53bd

fc3.weight f4 [256, 128]
0.15829393 0.005892968 0.20519975 0.20005576 -0.14529483 -0.32610297 0.41378245 -0.051866952
-0.6247254 -0.024786824 -0.15125127 -0.10053466 0.06661981 -0.18739842 -0.19620283 -0.043086294
0.10963777 -0.19897173 -0.087382205 0.12257339 0.02195838 0.26998076 -0.09927798 -0.0023800875
-0.06104582 0.1743314 0.37704584 -0.39823985 -0.06392667 0.16824459 -0.1033579 0.2811491
-0.013818987 0.19933926 0.27471125 0.059601095 -0.025166169 0.06595052 0.35873592 0.35805416
-0.2752768 -0.022283977 0.16705497 -0.11965619 0.010076401 -0.5829555 -0.2928264 0.01839322
-0.19442813 -0.037882153 0.08858648 0.29158586 0.03360448 -0.23524903 -0.13815594 0.06837791
0.22426325 -0.07357666 -0.4075188 -0.047708 0.19645299 0.14843772 0.38311252 -0.13656344
-0.05344066 0.08910118 0.16435847 -0.25181255 0.16024603 -0.058391992 0.30543417 -0.31725797
-0.18807541 -0.018767392 -0.13798817 -0.3045304 0.011044701 -0.04239557 0.23504618 0.40329793
0.33083665 -0.39729708 -0.11183413 -0.33173534 0.07417711 -0.1568142 -0.21847728 -0.14285538
0.30519772 -0.5298594 0.06344221 -0.47571683 0.15425502 0.04316984 0.30548388 -0.41384825
-0.19340552 -0.119938634 0.39877898 0.26194006 0.03820516 -3.091617e-05 0.19353619 0.6147867
0.046136636 -0.3529356 0.1008987 0.17709419 -0.33402145 0.028934767 -0.27632082 0.05428197
-0.26512954 0.16570997 -0.46273112 -0.149584 -0.1239155 -0.024107948 -0.26030648 0.38116342
-0.13215226 0.34858215 0.109576054 0.12305422 0.09592478 0.17447026 0.11472034 0.28067786
-0.070669554 0.22158875 -0.54158914 -0.17321005 0.21519515 0.21246724 0.0062698964 0.21894255
0.5197955 -0.05746193 -0.37217045 -0.17968704 0.066213615 -0.3180078 -0.22948746 0.14404094
-0.017115029 -0.2753399 -0.05977109 -0.25061628 0.39010376 0.24308981 -0.19554743 -0.01225859
-0.65700257 -0.3405109 -0.12554401 -0.0010033302 0.054929134 -0.14004229 -0.09918956 -0.07953473
0.12537913 -0.4154698 0.7662218 0.23754287 -0.13446529 -0.28226843 0.17643143 0.074897125
0.43291295 -0.2072839 0.25234282 0.07556102 0.026517302 0.7444462 0.09496457 -0.27042088
-0.15715809 -0.06688615 0.033983372 -0.21131267 0.1447704 -0.27572513 0.30016068 0.03824543
0.007052022 -0.048093338 0.13882878 0.2072766 -0.24314141 -0.24004963 -0.15517628 0.09498356
0.01683134 -0.581746 0.063537285 -0.1426198 -0.08686531 0.2309885 0.39638105 -0.12101729
0.15285504 -0.46742994 -0.15533994 0.0012988492 -0.42278618 0.0733405 -0.004664773 0.39168963
0.27612272 0.2191954 -0.019368494 0.12147697 -0.08388125 0.044445742 0.3435462 0.016465168
-0.28712982 -0.24706504 0.0902531 0.12552793 0.32592988 0.31997234 -0.12287241 -0.0050443523
0.0150234625 0.21256596 -0.067624174 -0.03153555 0.107709534 -0.3864466 -0.19746044 0.08311008
-0.10187925 -0.08649135 0.29452944 -0.25265232 -0.030282762 -0.020534767 -0.493143 -0.12588747
0.09277232 0.22167103 0.14048214 0.2612394 0.5906367 0.33671278 -0.005487103 0.06571248
0.20585129 0.30585113 0.022165429 0.03814785 -0.14950289 -0.21470082 -0.37385514 0.19634065
00000000: ce17 223e cc19 c13b e21f 523e 6bdb 4c3e
00000010: 2bc8 14be f8f6 a6be 4bdb d33e 7172 54bd
00000020: 01ee 1fbf bd0d cbbc 9de1 1abe 1ee5 cdbd
00000030: f86f 883d 5fe5 3fbe 65e9 48be 417b 30bd
00000040: c489 e03d 3fbf 4bbe 71f5 b2bd c207 fb3d
00000050: 0fe2 b33c eb3a 8a3e 4152 cbbd 3efb 1bbb
00000060: 2f0b 7abd ee83 323e 270c c13e 18e6 cbbe
00000070: fceb 82bd 4f48 2c3e 4fad d3bd c6f2 8f3e
00000080: 0869 62bc 971f 4c3e f4a6 8c3e 4720 743d
00000090: 4829 cebc 1111 873d 3cac b73e e052 b73e
000000a0: 15f1 8cbe e38c b6bc 7510 2b3e 4e0e f5bd
000000b0: 7d17 253c 923c 15bf 58ed 95be 61ad 963c
000000c0: 2b18 47be 512a 1bbd d46c b53d be4a 953e
000000d0: daa4 093d 1fe5 70be c078 0dbe b809 8c3d
000000e0: 44a5 653e 5caf 96bd 4ea6 d0be 7769 43bd
000000f0: f92a 493e 0f00 183e 5327 c43e 49d7 0bbe
00000100: 98e4 5abd ae7a b63d 964d 283e 93ed 80be
00000110: 8917 243e 712c 6fbd de61 9c3e a36f a2be
00000120: d796 40be 13be 99bc c54c 0dbe 69eb 9bbe
00000130: d5f4 343c faa6 2dbd f2af 703e 117d ce3e
00000140: 6c63 a93e 866a cbbe 4b09 e5bd 37d9 a9be
00000150: 2bea 973d e793 20be 82b8 5fbe ae48 12be
00000160: e042 9c3e dea4 07bf fded 813d 2891 f3be
00000170: 07f5 1d3e dcd2 303d 6268 9c3e ebe3 d3be
00000180: 190c 46be 63a2 f5bd c22c cc3e 021d 863e
00000190: 047d 1c3d fcab 01b8 5a2e 463e a962 1d3f
000001a0: c5f9 3c3d fab3 b4be faa3 ce3d 2e58 353e
000001b0: dc04 abbe 9b08 ed3c ec79 8dbe c556 5e3d
000001c0: 0fbf 87be e0af 293e 18eb ecbe 8c2c 19be
000001d0: 69c7 fdbd 087e c5bc e446 85be da27 c33e
000001e0: ec52 07be 5c79 b23e 6969 e03d da03 fc3d
000001f0: 3674 c43d 55a8 323e 7ff2 ea3d 02b5 8f3e
00000200: 33bb 90bd 29e8 623e 96a5 0abf fa5d 31be
00000210: 1e5c 5c3e 0391 593e b473 cd3b 7a32 603e
00000220: 5111 053f 335d 6bbd 208d bebe e1ff 37be
00000230: 019b 873d ebd1 a2be c3fe 6abe 787f 133e
00000240: d134 8cbc 5af9 8cbe 88d2 74bd c750 80be
00000250: aebb c73e 89ec 783e 963d 48be 41d8 48bc
00000260: 5231 28bf 7257 aebe 9c8e 00be 2d82 83ba
00000270: 5ffd 603d 3f67 0fbe e523 cbbd 1be3 a2bd
00000280: 6363 003e 75b8 d4be 1d27 443f 703e 733e
00000290: 45b1 09be 7d85 90be 71aa 343e aa63 993d
000002a0: c4a6 dd3e 3b42 54be 1433 813e bcbf 9a3d
000002b0: d03a d93c 0794 3e3f c97c c23d 9b74 8abe
000002c0: 0dee 20be 9bfb 88bd 2632 0b3d 5962 58be
000002d0: b13e 143e d82b 8dbe a9ae 993e 3da7 1c3d
000002e0: a614 e73b 85fd 44bd 2229 0e3e 5140 543e
000002f0: 10fa 78be 92cf 75be 88e6 1ebe be86 c23d
00000300: e1e1 893c 4eed 14bf d61f 823d ed0a 12be
00000310: 71e6 b1bd 4088 6c3e 75f2 ca3e ead7 f7bd
00000320: 0886 1c3e fa52 efbe 6f11 1fbe 263e aa3a
00000330: 6e77 d8be 8b33 963d f4da 98bb 8b8b c83e
00000340: f55f 8d3e c274 603e adaa 9ebc ebc8 f83d
00000350: efc9 abbd bd0c 363d 4ae5 af3e f6e1 863c
00000360: ae02 93be 9efe 7cbe 9ed6 b83d 658a 003e
00000370: 48e0 a63e 6ad3 a33e 88a4 fbbd 184b a5bb
00000380: f824 763c e4aa 593e 8b7e 8abd 6c2b 01bd
00000390: d196 dc3d 54dc c5be 1233 4abe 9e35 aa3d
000003a0: 11a6 d0bd 6022 b1bd 90cc 963e a55b 81be
000003b0: 8e13 f8bc 8738 a8bc 3d7d fcbe a5e8 00be
000003c0: 6aff bd3d bbfd 623e 8dda 0f3e 2cc1 853e
000003d0: f733 173f 9e65 ac3e 28cd b3bb 4494 863d
000003e0: aeca 523e 8598 9c3e 4694 b53c ec40 1c3d
000003f0: 4917 19be 88da 5bbe f169 bfbe 860d 493e

fc3.bias f4 [256]
-0.12160011 0.5876227 -0.52719206 -0.2875583 0.2129292 -0.32642904 0.2426444 -0.0015417099
0.6275816 -0.23302315 -0.042877614 0.32809806 0.44930682 0.29884684 0.022183413 -0.20963205
-0.088584565 -0.08659576 -0.7222228 0.29628947 -0.15739089 0.04021877 -0.17376253 -0.4021439
-0.5704161 -0.32854497 0.27469015 -0.15774441 -0.0052303546 -0.30266163 0.38290027 0.30687994
-0.11223676 -0.15604587 0.037332788 0.22699381 0.59987 -0.0104375975 -0.06467489 -0.20071197
-0.36096868 0.19086759 -0.060055323 -0.27127936 -0.6029928 -0.03438489 0.027098123 0.012651917
0.73077506 -0.06613037 0.26409537 0.1284809 -0.55980146 0.02768375 0.50065136 -0.3252078
0.1158569 -0.12684852 0.31761554 0.3187993 -0.3968736 0.2595795 -0.36002678 -0.047729347
0.029163947 0.07397528 0.19216223 0.3588298 0.013660277 -0.71200037 0.32538217 -0.26989934
-0.44024378 -0.12032002 -0.37172282 0.037858333 0.120116614 -0.8359753 -0.139065 0.51053095
-0.6772462 -0.006660092 0.15789433 0.5706144 0.41225013 0.11101948 -0.091187954 0.16673979
0.18373735 -0.4788673 -0.0028789158 -0.0041659423 0.11537363 0.2581716 0.5151151 0.38129997
0.24556348 -0.07484549 -0.515945 -0.3776963 0.29390743 -0.4289801 0.10126264 -0.5202456
-0.14497386 -0.7620924 -0.14184341 0.053153027 -0.132766 -0.25280955 0.3119534 -0.10527643
-0.50130004 -0.27203214 0.053664785 0.05678591 -0.26341668 0.31907663 0.26763538 0.52959734
0.02229876 0.5668985 1.2239703 0.062318053 0.16381337 0.26595217 0.31497362 -0.9674888
0.13816047 0.1798175 0.008479517 -0.22650287 0.26340806 -0.15533338 -0.17605451 -0.018655458
0.174186 -0.25406373 0.074177414 -0.35008997 0.052766267 0.56349194 0.03114989 -0.17976174
0.15076366 -1.0252147 0.46627876 0.20084567 -0.27273992 0.2409002 -0.16730827 -0.28311017
-0.24161625 -0.59295404 -0.3074728 -0.22963057 -0.12644088 -0.34028587 -0.08060441 -0.16895227
-0.4589485 0.5775063 -0.31133702 -0.11676403 -0.62070465 0.2672473 0.06881757 -0.34849408
0.00729488 -0.13544776 -0.31190634 -0.31972706 0.19429407 0.0058027715 0.71437293 -0.10902107
0.07385969 -0.1513363 -0.053186443 -0.09565096 -0.25278607 0.1174723 -0.20487237 0.20314144
-0.95881504 -0.6958041 0.060755745 -0.1039019 -0.122104205 0.049436923 -0.11420818 -0.14943233
-0.07772171 -0.06989661 -0.74358374 -0.29365057 -0.12904279 -0.8134516 0.23125684 -0.61534554
0.40747848 0.08118257 0.25259757 -0.28913856 -0.7094862 0.4760709 0.25383508 0.24026842
0.28742546 -1.0365089 0.617422 -0.7086762 -0.068860814 0.20454957 0.13373075 -0.02183763
0.23645777 0.00355342 -0.08910808 -0.010737903 0.6040545 0.037505075 -0.27707055 0.04211284
-0.2562086 -0.2894046 -0.4254085 0.074064195 -0.24151282 0.4821171 -1.2068563 0.16122957
-0.67622936 -0.6116222 0.025085682 -0.47537932 0.39306948 0.072551005 -0.40077108 -0.24440743
-0.43987158 -0.04048514 0.23052509 0.11661406 -0.09747422 0.3558766 -0.06728193 0.15267989
-0.39230436 -0.18774544 0.12729098 0.16482559 0.080589645 0.6411718 -0.31193233 -0.20216419
00000000: 7a09 f9bd 716e 163f 0ff6 06bf d73a 93be
00000010: 1d0a 5a3e b521 a7be c677 783e 3313 caba
00000020: 30a9 203f 9f9d 6ebe 70a0 2fbd 78fc a73e
00000030: 8b0b e63e 7402 993e fdb9 b53c c9a9 56be
00000040: d36b b5bd 1e59 b1bd 98e3 38bf 41b3 973e
00000050: 142b 21be 70bc 243d ceee 31be cee5 cdbe
00000060: ca06 12bf 0c37 a8be 30a4 8c3e c087 21be
00000070: 6563 abbb 77f6 9abe 810b c43e 5e1f 9d3e
00000080: 63dc e5bd 7dca 1fbe 44ea 183d 1171 683e
00000090: 1591 193f 7502 2bbc 4574 84bd 7087 4dbe
000000a0: e3d0 b8be cb72 433e 92fc 75bd 21e5 8abe
000000b0: bc5d 1abf 2cd7 0cbd e2fc dd3c fc49 4f3c
000000c0: 1314 3b3f 5c6f 87bd 8237 873e 7f90 033e
000000d0: 264f 0fbf 08c9 e23c b02a 003f a381 a6be
000000e0: 6246 ed3d 94e4 01be 819e a23e a939 a33e
000000f0: 0433 cbbe 9be7 843e 6e55 b8be d97f 43bd
00000100: 3be9 ee3c 5a80 973d 2dc6 443e 8ab8 b73e
00000110: 5bcf 5f3c a845 36bf 7e98 a63e 3f30 8abe
00000120: a267 e1be 586a f6bd 7452 bebe 5711 1b3d
00000130: b3ff f53d 7a02 56bf 0e67 0ebe 28b2 023f
00000140: 0260 2dbf e73c dabb 0daf 213e c913 123f
00000150: 7312 d33e 2e5e e33d c0c0 babd d6bd 2a3e
00000160: a525 3c3e 182e f5be 31ac 3cbb 7582 88bb
00000170: 0249 ec3d 112f 843e 95de 033f c039 c33e
00000180: fe74 7b3e 9848 99bd f914 04bf 6961 c1be
00000190: 097b 963e 48a3 dbbe c962 cf3d d12e 05bf
000001a0: 0774 14be 7d18 43bf 663f 11be fdb6 593d
000001b0: cff3 07be 4170 81be 5bb8 9f3e 2b9b d7bd
000001c0: 3355 00bf cc47 8bbe 9bcf 5b3d 5898 683d
000001d0: 8dde 86be 035e a33e 8107 893e b193 073f
000001e0: e4ab b63c 4320 113f 0fab 9c3f 3741 7f3d
000001f0: b1be 273e e22a 883e 3944 a13e 59ad 77bf
00000200: f079 0d3e 1422 383e aced 0a3c 5ef0 67be
00000210: 6cdd 863e b70f 1fbe a247 34be 55d3 98bc
00000220: d15d 323e a414 82be 54ea 973d fe3e b3be
00000230: 7121 583d 0241 103f 0e2e ff3c 7613 38be
00000240: ca61 1a3e 3c3a 83bf 17bc ee3e 7daa 4d3e
00000250: 91a4 8bbe 8bae 763e dc52 2bbe d1f3 90be
00000260: 406a 77be d6cb 17bf 136d 9dbe 4724 6bbe
00000270: b879 01be f339 aebe ed13 a5bd d301 2dbe
00000280: 4cfb eabe 74d7 133f 9167 9fbe fb21 efbd
00000290: 80e6 1ebf a3d4 883e 3af0 8c3d d16d b2be
000002a0: e409 ef3b d1b2 0abe 30b2 9fbe 44b3 a3be
000002b0: 06f5 463e 2d25 be3b 25e1 363f 7046 dfbd
000002c0: c043 973d e7f7 1abe 07da 59bd a7e4 c3bd
000002d0: 2d6d 81be 5195 f03d 10ca 51be 4f04 503e
000002e0: e774 75bf 3820 32bf 04db 783d 85ca d4bd
000002f0: c511 fabd 5f7e 4a3d fae5 e9bd ca04 19be
00000300: 8f2c 9fbd f425 8fbd 815b 3ebf 5e59 96be
00000310: cb23 04be 5d3e 50bf 98ce 6c3e 4987 1dbf
00000320: 05a1 d03e 0c43 a63d 7854 813e f809 94be
00000330: e3a0 35bf 91bf f33e acf6 813e ed08 763e
00000340: 6e29 933e 53ac 84bf 5e0f 1e3f ce6b 35bf
00000350: e606 8dbd 7175 513e b7f0 083e d4e4 b2bc
00000360: fc21 723e 7fe0 683b 4c7e b6bd 08ee 2fbc
00000370: 51a3 1a3f ec9e 193d 31dc 8dbe 837e 2c3d
00000380: c62d 83be d72c 94be 25cf d9be f8ae 973d
00000390: 234f 77be 0dd8 f63e 447a 9abf 5d19 253e
000003a0: 5e1d 2dbf 4693 1cbf 7d80 cd3c eb64 f3be
000003b0: 6740 c93e 9f95 943d de31 cdbe f145 7abe
000003c0: d936 e1be bfd3 25bd c50e 6c3e 5ad3 ee3d
000003d0: 90a0 c7bd 7535 b63e 1ccb 89bd 1e58 1c3e
000003e0: 1edc c8be 5740 40be 9158 023e 0ac8 283e
000003f0: 2f0c a53d d623 243f 98b5 9fbe 2104 4fbe

fc4.weight f4 [128, 256]
-0.31203702 -0.14578408 -1.5309994 0.16577448 -0.72747886 -0.16127518 -0.022832425 -0.05485418
-0.4532412 0.07260164 0.2754821 0.06740009 0.07958395 -1.5242492 0.013163438 -0.1891014
0.17101309 -0.47788155 0.04327243 -0.4017886 0.1504937 -0.11330126 -0.0023869718 -0.021200355
-1.6631335 -0.50338614 -0.3231085 -0.3363922 0.20861152 0.15273502 -0.33717424 -0.06899262
0.39574632 0.063910544 -0.45897377 0.2943906 -0.14374875 -0.05952345 -0.068657 -0.123747915
-1.0710555 -0.69143903 0.19506791 0.25656915 0.024510354 -0.5723249 -0.7215247 0.41436222
-0.45624697 0.058239195 -0.046181664 -0.40662554 0.1714451 -0.9168856 0.007310005 -0.71082205
-0.20752345 -0.22635542 -0.62448436 0.0818976 0.39171764 -0.07312404 -1.1559163 0.18416594
-0.66186726 -0.12986682 0.32752827 0.16181879 -0.118558586 0.135783 -0.009050896 -0.04579348
0.6676633 0.023766074 -0.15648249 -0.83533037 -0.024206033 -0.093933985 -0.09048928 -0.5453205
-0.07430943 0.60338384 -0.17247447 0.34386876 0.10162418 -0.5501142 -0.3203309 0.44337478
-0.10707934 0.21956119 -2.474971 -0.02948569 -0.028968565 0.020620888 -0.081850536 0.46887562
-0.52989703 -0.061737772 0.21430674 -0.059473876 0.17841643 0.09709864 0.22354402 -0.22819771
0.20068102 -0.57785445 -0.19275266 -1.18997 -0.1259079 -0.22286393 -2.446046 -0.22671014
-0.18342978 -0.19357176 0.2935084 -0.706026 0.2746181 0.12344058 -0.20344484 -1.0727899
0.17096698 0.23996851 0.27733487 0.26254416 -0.5034028 -0.07912158 -0.30953273 0.24269962
0.09420644 0.012993693 0.025040256 -0.3312178 -0.33618325 -0.22546765 -0.8384336 -0.4396435
0.14755195 -0.061373476 0.2833022 0.757088 0.011089256 -0.4396229 -0.09174848 0.34865236
-0.19680524 -0.7596668 -0.17458747 -0.086550295 -0.270757 -0.02611212 0.4759172 -0.11235988
-0.3882548 -0.070477225 -0.3324838 0.24917416 -0.6717408 0.0126885 -0.124629654 -0.27177063
0.12403687 0.101887606 0.28942752 -0.38941717 0.0512048 0.25766903 -0.30470413 -0.20634346
0.28045574 0.06938834 -0.729527 -0.17120834 0.07217099 -0.12255252 -0.19982228 -0.012444701
-0.03109489 -0.4135841 -0.5842067 -0.36512262 -0.2546566 0.6730473 -0.027443891 0.056373775
-0.024475655 0.23790264 -0.01700188 -0.29310948 0.012967935 0.15223767 -0.12721936 -0.1250327
-0.10616796 -0.116240256 0.043082368 -0.17471592 0.11501203 -0.12181583 -0.18324012 0.009912195
0.16639784 0.07900946 -0.3280102 0.10426208 -0.6295088 0.07122957 -0.4820688 0.045353755
0.5940907 -0.85215664 -0.25630605 -0.12995058 0.33174607 -0.037329473 -0.007289211 0.012827531
-0.29276988 0.05063252 -0.08213618 -0.46654394 0.29065698 -0.16589655 0.00518826 -0.18312909
0.056581132 0.101516604 0.31709877 -0.027628351 -0.38295987 0.2922925 0.048440047 0.1934197
0.12727398 0.1942802 0.02269623 0.0055955825 0.5857611 -0.17873825 -0.9033998 -0.043108184
-0.1370018 -0.09766818 -0.60322475 -0.028813878 -0.022724243 -0.18405211 -0.5277374 0.020209638
-0.5877752 -0.15221949 0.3064777 -0.13393176 1.289248 -0.16403732 0.18224618 0.024283508
00000000: 51c3 9fbe 6c48 15be caf7 c3bf c9c0 293e
00000010: 0e3c 3abf 5225 25be 110b bbbc c7ae 60bd
00000020: 3b0f e8be 2bb0 943d fd0b 8d3e 0f09 8a3d
00000030: e9fc a23d 991a c3bf 76ab 573c cca3 41be
00000040: 0e1e 2f3e e4ac f4be 6e3e 313d 3cb7 cdbe
00000050: 051b 1a3e 7e0a e8bd be6e 1cbb 5eac adbc
00000060: 8fe1 d4bf eadd 00bf 7a6e a5be 993b acbe
00000070: 429e 553e 9266 1c3e 1aa2 acbe 014c 8dbd
00000080: 439f ca3e 88e3 823d 9cfe eabe 5dba 963e
00000090: df32 13be dcce 73bd 0b9c 8cbd 8c6f fdbd
000000a0: 5918 89bf 2602 31bf e2bf 473e 085d 833e
000000b0: f0c9 c83c e283 12bf d8b5 38bf 4927 d43e
000000c0: 3499 e9be 398c 6e3d fc28 3dbd 3931 d0be
000000d0: 4e8f 2f3e 04b9 6abf c488 ef3b 6ff8 35bf
000000e0: 0781 54be b7c9 67be 35de 1fbf eeb9 a73d
000000f0: 378f c83e 0fc2 95bd 11f5 93bf ff95 3c3e
00000100: 2270 29bf cffb 04be c9b1 a73e d3b3 253e
00000110: d8ce f2bd b30a 0b3e 364a 14bc f291 3bbd
00000120: fbeb 2a3f 12b1 c23c f23c 20be 36d8 55bf
00000130: bb4b c6bc 7660 c0bd 7252 b9bd 209a 0bbf
00000140: 8b2f 98bd 5d77 1a3f 269d 30be 910f b03e
00000150: 5720 d03d 49d4 0cbf 6902 a4be 0502 e33e
00000160: 6a4c dbbd a6d4 603e ed65 1ec0 f98b f1bc
00000170: 7c4f edbc 23ed a83c 41a1 a7bd 7710 f03e
00000180: 55a7 07bf bfe0 7cbd 3a73 5b3e e19a 73bd
00000190: ccb2 363e a7db c63d b9e8 643e a9ac 69be
000001a0: 537f 4d3e 45ee 13bf f460 45be f050 98bf
000001b0: 00ee 00be 7136 64be 058c 1cc0 b426 68be
000001c0: 04d5 3bbe ad37 46be bc46 963e 1fbe 34bf
000001d0: be9a 8c3e 6ace fc3d d853 50be 2e51 89bf
000001e0: f811 2f3e 4eba 753e d6fe 8d3e 306c 863e
000001f0: 02df 00bf 7f0a a2bd 137b 9ebe 4086 783e
00000200: 4eef c03d 80e3 543c 3921 cd3c 6195 a9be
00000210: 3620 acbe fee0 66be 96a3 56bf f418 e1be
00000220: dc17 173e c162 7bbd fc0c 913e 85d0 413f
00000230: b6af 353c 4116 e1be a1e6 bbbd 9082 b23e
00000240: 5087 49be 8679 42bf 0fc7 32be 4841 b1bd
00000250: a9a0 8abe 16e9 d5bc 6bab f33e f01c e6bd
00000260: 55c9 c6be 5d56 90bd 513b aabe 8327 7f3e
00000270: 34f7 2bbf 6de3 4f3c d53d ffbd 8525 8bbe
00000280: 0b07 fe3d 73aa d03d d82f 943e b061 c7be
00000290: 20bc 513d 32ed 833e 2e02 9cbe b34b 53be
000002a0: e597 8f3e 791b 8e3d 48c2 3abf 3d51 2fbe
000002b0: 62ce 933d d1fc fabd 369e 4cbe dce4 4bbc
000002c0: b6ba febc 4cc1 d3be 928e 15bf 5af1 babe
000002d0: 5a62 82be d44c 2c3f 03d2 e0bc 30e8 663d
000002e0: 2b81 c8bc c09c 733e 8747 8bbc 7212 96be
000002f0: 7677 543c 31e4 1b3e cb45 02be 9208 00be
00000300: 966e d9bd 5f0f eebd 2377 303d bbe8 32be
00000310: 6d8b eb3d 947a f9bd 4ca3 3bbe c266 223c
00000320: 3264 2a3e b6cf a13d f4f0 a7be 5b87 d53d
00000330: 7d27 21bf cfe0 913d b9d1 f6be dcc4 393d
00000340: 5416 183f f026 5abf 8c3a 83be c411 05be
00000350: 9fda a93e cae6 18bd 55da eebb 912a 523c
00000360: efe5 95be 0c64 4f3d 0337 a8bd d9de eebe
00000370: fed0 943e c9e0 29be 4802 aa3b 3186 3bbe
00000380: 9ec1 673d f0e7 cf3d c55a a23e da54 e2bc
00000390: 5113 c4be 5da7 953e 1269 463d d00f 463e
000003a0: 1c54 023e 64f1 463e 72ed b93c 265b b73b
000003b0: 70f4 153f 2907 37be 3645 67bf 3592 30bd
000003c0: 334a 0cbe 4106 c8bd f06c 1abf 150b ecbc
000003d0: 3128 babc 2878 3cbe cc19 07bf af8e a53c
000003e0: 6f78 16bf 6ddf 1bbe a5ea 9c3e 6825 09be
000003f0: 1406 a53f 66f9 27be be9e 3a3e 35ee c63c

fc4.bias f4 [128]
0.111166775 -0.1918624 0.102162324 -0.05926054 -0.5938611 0.37378415 0.1540266 0.035105433
-0.23036398 0.0071471334 -0.31421712 -0.3310564 0.08109128 0.28224245 0.07096813 -0.19879726
-0.0437718 0.22863232 -0.18759596 -0.47921813 -0.55289835 -0.3457301 -0.23998661 0.28861722
0.28466812 -0.30698493 -0.08975949 0.13507369 0.10601128 0.1899117 0.008512735 0.06992592
-0.20024198 0.39316955 0.035241157 -0.34686652 0.43381673 0.22300638 -0.03652834 -0.07003377
0.012622853 -0.082909256 -0.026085166 0.20152782 -0.17064947 0.032620773 0.03978046 -0.22162762
-0.1548586 0.03424931 -0.042426575 -0.08194478 0.02114889 0.1882857 0.25781682 -0.046888772
-0.07877483 -0.002206889 0.19373581 -0.12647158 0.019465439 -0.3250584 0.33632052 -0.33962882
0.18678544 -0.6904608 0.09831952 -0.0683281 -0.3796775 -0.08308912 -0.271563 -0.65565234
-0.118803866 -0.42520773 0.28541717 -0.052101724 -0.04009958 -0.3401525 0.08207961 0.012095616
-0.16505396 0.1334109 0.16244347 0.0144640505 -0.047926128 -0.00079352455 -0.12876748 -0.43798432
-0.37910458 0.58382964 -0.01655737 -0.24436857 -0.6935498 0.046686195 0.06306634 0.026911959
-0.34273088 -0.35892674 -0.1963186 0.046772268 0.05552543 0.17950001 -0.51627976 -0.05348408
-0.10551522 0.04878625 0.013286872 -0.071957596 0.24473432 0.19106825 -0.20418347 0.09989719
0.054971438 -0.121493384 -0.06806821 -0.016549908 0.08263033 -0.2457152 0.18175612 -0.0463628
0.03934652 -0.33325455 0.08039335 -0.16021116 -0.10148197 -0.10469014 -0.17800528 -0.741229
00000000: 68ab e33d 9477 44be 7b3a d13d 2ebb 72bd
00000010: 4807 18bf a360 bf3e 26b9 1d3e b7ca 0f3d
00000020: 89e4 6bbe 8032 ea3b 11e1 a0be 3980 a9be
00000030: 2f13 a63d 1582 903e bd57 913d 8291 4bbe
00000040: 0f4a 33bd 971e 6a3e 2819 40be 145c f5be
00000050: bf8a 0dbf 8903 b1be 0dbf 75be a3c5 933e
00000060: 05c0 913e 212d 9dbe d3d3 b7bd c250 0a3e
00000070: 711c d93d 3678 423e 0079 0b3c 5235 8f3d
00000080: 3c0c 4dbe 854d c93e 0859 103d 7d98 b1be
00000090: 3a1d de3e c95b 643e be9e 15bd dd6d 8fbd
000000a0: 15d0 4e3c 54cc a9bd 8fb0 d5bc 4f5d 4e3e
000000b0: bcbe 2ebe 5c9d 053d d6f0 223d 5af2 62be
000000c0: 4193 1ebe 0149 0c3d 7dc7 2dbd aad2 a7bd
000000d0: 7040 ad3c f7cd 403e 9100 843e 710e 40bd
000000e0: b354 a1bd 74a1 10bb ae62 463e c481 01be
000000f0: fc75 9f3c 0e6e a6be 3432 ac3e d4e3 adbe
00000100: af44 3f3e 0ac2 30bf bf5b c93d 9aef 8bbd
00000110: 1765 c2be a12a aabd 4e0a 8bbe d5d8 27bf
00000120: 714f f3bd d4b4 d9be 3322 923e 9e68 55bd
00000130: 753f 24bd 7828 aebe 5b19 a83d b12c 463c
00000140: e803 29be de9c 083e 9557 263e a0fa 6c3c
00000150: 304e 44bd 8804 50ba 9fdb 03be 7b3f e0be
00000160: ff19 c2be dc75 153f 52a3 87bc c13b 7abe
00000170: 7b8c 31bf 063a 3f3d ed28 813d 7876 dc3c
00000180: 6c7a afbe 3fc5 b7be be07 49be 4794 3f3d
00000190: a26e 633d dace 373e e92a 04bf 1f12 5bbd
000001a0: 5d18 d8bd 17d4 473d 2eb1 593c 815e 93bd
000001b0: a29b 7a3e 65a7 433e 7915 51be e696 cc3d
000001c0: bb29 613d 86d1 f8bd 5867 8bbd ac93 87bc
000001d0: 173a a93d c49c 7bbe 471e 3a3e ebe6 3dbd
000001e0: d129 213d 57a0 aabe 45a5 a43d 650e 24be
000001f0: c7d5 cfbd c967 d6bd 0447 36be 2fc1 3dbf

fc5.weight f4 [61, 128]
0.26102906 -0.07561242 -0.106074914 0.09156373 -0.36930498 0.063414715 -0.021781592 0.17729369
-0.07884362 0.17805454 -0.24286954 0.03205187 -0.17428465 0.123383716 -0.059881225 0.12896957
-0.13628632 0.031895578 0.11970481 -0.043550525 0.058994394 0.041244794 -0.29517922 0.015503651
0.11542632 -0.16643725 -0.07443018 0.029196862 0.43203676 -0.012917503 0.056378365 -0.046608467
0.040807046 -0.13429387 0.30056375 0.08085536 0.008510618 -0.053907163 -0.01674659 0.07912723
-0.05887418 -0.12774114 0.14628784 0.012340513 0.010968838 -0.059593204 -0.08514536 -0.22574094
0.04372053 0.07881346 0.02190464 0.045907985 0.04032849 -0.090581216 0.11094426 -0.013270688
0.19560006 -0.100269504 0.01621491 0.3154833 -0.21707596 -0.112364195 -0.059677493 0.31865683
-0.08716376 0.07901077 -0.14336625 0.23285846 -0.039005335 0.3082966 -0.23337266 0.1440924
0.15572982 -0.029083842 -0.07414187 -0.015826533 0.16061117 -0.13420522 -0.111921385 0.058429573
0.058274034 -0.02040157 -0.0679892 -0.03870735 0.009379633 0.035338916 0.015331084 0.014157285
-0.08799524 0.15176415 -0.057145957 0.08170767 0.21820188 0.09306837 -0.20023409 0.30461258
-0.09192726 -0.11462554 0.0010293843 0.0030064627 0.05644651 0.18503648 0.033612765 -0.23689769
-0.073497415 0.09892048 0.05435909 0.007871812 -0.07436349 0.09769158 0.22621413 -0.06287777
0.07453035 -0.18929437 -0.06023774 0.009191536 -0.07676603 0.14030789 -0.0017015884 0.20434333
-0.061447043 0.2422911 0.106881514 0.016435347 0.08352809 -0.069756925 -0.19799292 -0.08936366
0.12028733 0.035559423 -0.07807732 -0.012827625 0.18491878 -0.036031898 -0.23285076 0.14517306
0.02043275 -0.16337809 0.102119215 -0.05819224 0.0065496103 0.27470022 0.07645857 -0.23666947
-0.14347428 -0.07575958 -0.3852047 -0.122673675 0.03950867 0.051635 0.14033382 -0.04827879
-0.01894231 0.022040784 0.026459722 -0.09241186 -0.002148371 0.033665083 0.20758538 -0.12454351
-0.08246476 -0.22097056 -0.01485459 -0.12570874 -0.16112266 -0.07659038 -0.23263213 -0.07701437
-0.012732116 -0.12663707 0.16431789 -0.007832453 -0.009356888 -0.019418195 0.04436432 0.2671174
-0.039702706 0.14184518 -0.22532256 -0.07345197 0.248756 0.012602561 -0.04387907 -0.13359271
0.08825435 -0.0043760114 -0.18760155 -0.08173154 -0.06471113 -0.06694842 -0.42724654 -0.009240506
0.07225113 0.04339421 0.09867637 -0.035958305 -0.0012031778 -0.007316199 -0.0040992945 -0.0037164157
-0.03292848 0.0057016793 -0.12794583 0.10458528 0.12204632 0.004584994 0.11771658 -0.03337309
-0.17884554 0.114814185 0.10966189 -0.08248317 -0.013559158 -0.0592986 0.057689127 -0.09882976
0.01593684 0.0514252 -0.2060593 0.035625674 -0.28714907 0.05453258 -0.1803894 -0.008894191
0.0699907 0.011095272 -0.08649459 -0.020690208 -0.13723277 0.09535144 -0.0003758923 0.23764254
0.07675795 0.03837696 0.055315617 0.014416781 -0.08948318 0.031957205 0.0071257916 -0.16634746
-0.027297398 -0.043099977 -0.10640481 0.15944685 -0.032902386 -0.0028430196 -0.12199653 0.023021454
0.010356151 0.117348075 -0.11496485 0.15916668 0.01718588 0.104822405 0.29689977 0.15391943
00000000: 9aa5 853e afda 9abd ce3d d9bd c485 bb3d
00000010: 8b15 bdbe 93df 813d 4f6f b2bc 7a8c 353e
00000020: c478 a1bd ee53 363e cbb2 78be d248 033d
00000030: ad77 32be 9ab0 fc3d 0446 75bd 9910 043e
00000040: a48e 0bbe f0a4 023d cc27 f53d 0962 32bd
00000050: 1ba4 713d 4df0 283d bb21 97be 0703 7e3c
00000060: a264 ec3d 876e 2abe da6e 98bd 422e ef3c
00000070: ec33 dd3e efa3 53bc 00ed 663d 85e8 3ebd
00000080: 4a25 273d 5584 09be 7ee3 993e 7f97 a53d
00000090: 1e70 0b3c c2cd 5cbd 2530 89bc 750d a23d
000000a0: 0d26 71bd 93ce 02be 7bcc 153e dd2f 4a3c
000000b0: a4b6 333c 0118 74bd b160 aebd a228 67be
000000c0: 4c14 333d f468 a13d 5c71 b33c 030a 3c3d
000000d0: 7d2f 253d a582 b9bd bf36 e33d 4d6d 59bc
000000e0: 624b 483e 195a cdbd 22d5 843c 0787 a13e
000000f0: 2949 5ebe 331f e6bd 6370 74bd fd26 a33e
00000100: ea82 b2bd 66d0 a13d 9ace 12be 7372 6e3e
00000110: 0fc4 1fbd 0dd9 9d3e 3ef9 6ebe f58c 133e
00000120: a377 1f3e 3d41 eebc b1d7 97bd a5a6 81bc
00000130: 4177 243e 186d 09be 0a37 e5bd d953 6f3d
00000140: c1b0 6e3d 3121 a7bc ec3d 8bbd 998b 1ebd
00000150: 08ad 193c 8abf 103d 3a2f 7b3c f5f3 673c
00000160: d936 b4bd 1068 1b3e e111 6abd 5a56 a73d
00000170: 5070 5f3e a19a be3d 2a0a 4dbe 2ef6 9b3e
00000180: 5c44 bcbd ccc0 eabd 68ec 863a 1308 453b
00000190: 7534 673d 347a 3d3e 8aad 093d 4f95 72be
000001a0: d085 96bd d296 ca3d a3a7 5e3d c6f8 003c
000001b0: e34b 98bd 8612 c83d ada4 673e 0fc6 80bd
000001c0: 5ea3 983d 62d6 41be d9bb 76bd 1998 163c
000001d0: 8237 9dbd dfac 0f3e d507 dfba 613f 513e
000001e0: e5af 7bbd 281b 783e b2e4 da3d 6ca3 863c
000001f0: c610 ab3d b8dc 8ebd a8be 4abe 4b04 b7bd
00000200: 3459 f63d c2a6 113d 00e7 9fbd f52a 52bc
00000210: 595b 3d3e 2f96 13bd 6e70 6ebe 3fa8 143e
00000220: 9562 a73c 964c 27be e123 d13d fc5a 6ebd
00000230: 1d9e d63b 82a5 8c3e 5096 9c3d 7b59 72be
00000240: ecea 12be d727 9bbd 8d39 c5be 563c fbbd
00000250: d8d3 213d 397f 533d abb3 0f3e fbbf 45bd
00000260: e72c 9bbc e08e b43c 0fc2 d83c 6e42 bdbd
00000270: afcb 0cbb 66e4 093d 4391 543e ab10 ffbd
00000280: 49e3 a8bd 1b46 62be ab60 73bc cbb9 00be
00000290: 57fd 24be 6bdb 9cbd 1e37 6ebe b6b9 9dbd
000002a0: 5d9a 50bc 26ad 01be f342 283e b053 00bc
000002b0: a24d 19bc e812 9fbc 5cb7 353d 9dc3 883e
000002c0: 4e9f 22bd dd3f 113e f5ba 66be fd6d 96bd
000002d0: e5b9 7e3e f97a 4e3c 8aba 33bd 87cc 08be
000002e0: b2be b43d a564 8fbb 9f1a 40be de62 a7bd
000002f0: 4587 84bd 411c 89bd 0fc0 dabe 7e65 17bc
00000300: 67f8 933d 21be 313d d616 ca3d 0449 13bd
00000310: f3b3 9dba babc efbb 6053 86bb 1c8f 73bb
00000320: 04e0 06bd 27d5 ba3b 3b04 03be cf30 d63d
00000330: 6cf3 f93d b83d 963b 6415 f13d 39b2 08bd
00000340: 4923 37be b323 eb3d 6a96 e03d f0ec a8bd
00000350: 3b27 5ebc 17e3 72bd 6f4b 6c3d 4267 cabd
00000360: fa8d 823c 3ba3 523d 3601 53be 3aec 113d
00000370: 3405 93be 8e5d 5f3d 00b8 38be f1b8 11bc
00000380: 4957 8f3d f2c8 353c 1324 b1bd 837e a9bc
00000390: bf86 0cbe 9e47 c33d 6913 c5b9 9158 733e
000003a0: 4633 9d3d 2931 1d3d a192 623d 5d34 6c3c
000003b0: f542 b7bd 8fe5 023d 797f e93b fd56 2abe
000003c0: cb9e dfbc 9a89 30bd c4ea d9bd 0946 233e
000003d0: a7c4 06bd f451 3abb 51d9 f9bd 7d97 bc3c
000003e0: d8ac 293c 3054 f03d b172 ebbd 97fc 223e
000003f0: 67c9 8c3c 21ad d63d 3f03 983e 0e9d 1d3e

fc5.bias f4 [61]
0.43022543 -0.54251146 -0.11294079 -0.022967584 0.0286268 -0.059996057 -0.050482996 0.015630484
0.002813457 0.0067931153 0.14537989 -0.01489113 0.039190546 0.047990512 0.08115087 0.060707778
-0.043476988 -0.037353266 0.13266972 0.02829357 -0.050532233 0.33635625 -0.005037353 -0.082716905
-0.05572566 -0.12565427 0.05271866 -0.11111179 -0.076215535 -0.3652212 0.046141163 0.006871668
0.09599183 0.043309662 -0.06365898 0.27610856 0.029136805 -0.029560868 0.14493684 0.081199445
-0.0120102605 -0.04857196 0.07775014 -0.0726846 0.067742944 -0.094109714 -0.027474832 0.115983106
-0.0792275 -0.053520165 -0.0041793445 -0.13698895 -0.04802879 0.019327443 -0.058560736 -0.036711108
0.007501172 -0.0095852865 -0.012802827 0.02356906 -0.020884741
00000000: 8246 dc3e 08e2 0abf 804d e7bd 8426 bcbc
00000010: c082 ea3c 6dbe 75bd 42c7 4ebd 800b 803c
00000020: fa61 383b c898 de3b 77de 143e edf9 73bc
00000030: 4486 203d b391 443d 6d32 a63d b8a8 783d
00000040: ed14 32bd bdff 18bd 92da 073e ebc7 e73c
00000050: e3fa 4ebd e336 ac3e 6110 a5bb 7b67 a9bd
00000060: 9740 64bd 83ab 00be 86ef 573d 948e e3bd
00000070: e416 9cbd 46fe babe 84fe 3c3d bb2b e13b
00000080: 5d97 c43d 7965 313d a45f 82bd 1a5e 8d3e
00000090: 4fb0 ee3c a229 f2bc 536a 143e e54b a63d
000000a0: afc6 44bc 64f3 46bd 773b 9f3d aadb 94bd
000000b0: d0bc 8a3d 98bc c0bd e612 e1bc 8d88 ed3d
000000c0: 0742 a2bd f637 5bbd e2f2 88bb d546 0cbe
000000d0: d6b9 44bd 9654 9e3c 62dd 6fbd 635e 16bd
000000e0: 64cc f53b 9b0b 1dbc f3c2 51bc e713 c13c
000000f0: 7a16 abbc
