model_training/model.pth (torch, 355100 bytes, 10 tensors)

fc1.weight f4 [64, 91]
0.058025934 0.5490613 -0.10660933 0.24799162 0.10842898 0.49766928 -0.62925625 -0.01514058
0.67801243 0.0735358 0.12364729 0.2379058 -0.304494 0.067794085 0.2623219 -0.04278501
0.09605461 -0.2370253 -0.44013506 -0.17848966 -0.039189648 0.22980627 -0.27433646 0.1842192
-0.3357301 0.1103829 -0.14757143 -0.50185347 0.018238887 0.23587808 -0.097662136 0.14401014
-0.10229556 0.22129415 -0.21090685 -0.13180886 -0.20137542 -0.04426836 -0.25858027 0.05353077
0.12474754 -0.041612986 0.012647099 0.087358564 0.16652139 0.2760707 0.25117788 0.1912963
0.1268281 0.10809148 0.46565783 0.29968295 0.16375978 0.20973393 -0.08732933 -0.014376874
0.19649167 0.013378221 0.026980583 -0.11893417 0.0134715745 -0.02272723 -0.002913134 -0.046263404
0.028697405 0.17024876 0.077018455 -0.22896124 0.010023968 0.06870643 0.0187888 -0.026992073
-0.0627012 -0.120076366 0.04936296 0.03578671 0.07802971 0.1114607 0.26382923 -0.104135126
0.011372533 0.17656228 0.027238773 -0.00743218 0.099823885 -0.10519521 0.04538571 -0.040459942
0.24059519 0.13644324 -0.16136618 0.000593165 0.99305815 -0.6108443 0.16193622 0.28783506
-0.20660079 0.420778 0.18110467 -0.31744507 -0.06886827 0.25342005 0.28287962 -0.14779589
0.036442026 -0.12651855 -0.07995238 0.020273963 0.10613214 -0.17513396 0.19037122 -0.19925374
-0.035245724 -0.16478242 0.10343166 -0.21950653 -0.13918294 0.3463493 -0.15449135 0.2575373
-0.3199705 -0.11583459 0.10033732 -0.07572168 0.0785554 -0.4145534 -0.2901906 -0.11947078
-0.050182138 -0.08605014 0.04968554 -0.20858899 0.18259284 0.28413925 -0.4071151 -0.012276712
0.027872354 -0.062505275 0.07140491 -0.039180398 0.1338938 0.07223565 -0.106644325 -0.16343135
0.34643885 -0.05606419 0.21769734 -0.080288924 -0.1399278 -0.07308878 -0.20350237 -0.07909641
-0.11871609 0.104341134 0.1156877 0.1261838 0.09631758 -0.09024474 0.08583397 0.0038019111
0.14194946 0.032457594 0.057580475 -0.081654824 0.051050976 -0.035512462 0.28482604 0.18369201
0.16810632 -0.36991638 -0.2616252 0.031178774 0.09321913 0.21403067 0.009924892 -0.06428825
-0.05582154 -0.17732331 -0.05853621 -0.022815851 0.11765184 -0.037959933 0.6191893 0.47559276
-0.13041893 0.02652608 0.14471573 0.46482265 0.21651195 -0.3173733 -0.020560995 0.06486495
-0.04913997 0.39096856 -0.09500521 -0.24381801 0.22020859 0.12620601 -0.32040653 0.3477049
0.3138218 -0.6255661 -0.59139663 -0.22452892 -0.18276288 -0.22396758 -0.11924515 -0.27478832
0.22292277 0.13016799 -0.100954816 0.21267794 0.19320051 0.2499747 -0.035150565 -0.308492
-0.12613226 0.2660729 0.11923759 0.07434941 0.00091335154 -0.047744848 0.12364161 0.15226264
-0.057333786 -0.2864276 -0.051133085 -0.30930707 -0.11104769 -0.2764908 0.07846868 -0.24572928
0.21874674 0.08944725 0.06305595 0.06781307 0.14853257 -0.12038477 -0.061910454 -0.24279426
0.11225114 -0.18274438 -0.26798546 -0.05565085 0.109769106 -0.32510975 0.08593783 -0.10412392
0.3586148 0.21423961 -0.08809464 -0.15063702 -0.14288512 -0.14202157 0.06674473 -0.49977592
00000000: 9aac 6d3d 488f 0c3f fe55 dabd 84f1 7d3e
00000010: 0310 de3d 82ce fe3e f016 21bf 3210 78bc
00000020: 3992 2d3f f099 963d ca3a fd3d 949d 733e
00000030: a3e6 9bbe a0d7 8a3d 0e4f 863e 563f 2fbd
00000040: 48b8 c43d c3b6 72be 6259 e1be fec5 36be
00000050: 5385 20bd 5652 6b3e d475 8cbe f5a3 3c3e
00000060: d1e4 abbe 6e10 e23d f71c 17be 7879 00bf
00000070: b869 953c 068a 713e 1603 c8bd 6577 133e
00000080: 5680 d1bd ef9a 623e f7f7 57be e7f8 06be
00000090: 5c35 4ebe bd52 35bd a264 84be 1543 5b3d
000000a0: a37b ff3d 6172 2abd c735 4f3c 0ce9 b23d
000000b0: 9584 2a3e 2459 8d3e 639a 803e 2de3 433e
000000c0: 3adf 013e 115f dd3d b46a ee3e 0b70 993e
000000d0: a5b0 273e 7ec4 563e b8d9 b2bd fb8c 6bbc
000000e0: 1d35 493e 5330 5b3c 6206 dd3c c293 f3bd
000000f0: e1b7 5c3c 752e babc 47ea 3ebb b27e 3dbd
00000100: d216 eb3c b155 2e3e dabb 9d3d d174 6abe
00000110: 923b 243c f5b5 8c3d f8ea 993c 7b1e ddbc
00000120: 7d69 80bd 99ea f5bd d130 4a3d 1695 123d
00000130: 0ace 9f3d 8245 e43d a014 873e cc44 d5bd
00000140: dc53 3a3c becc 343e d923 df3c a589 f3bb
00000150: 7770 cc3d 9670 d7bd 5ee6 393d 53b9 25bd
00000160: 965e 763e c7b7 0b3e 2d3d 25be a17e 1b3a
00000170: 0f39 7e3f 4b60 1cbf 9cd2 253e 1e5f 933e
00000180: 288f 53be 3770 d73e 8173 393e 2988 a2be
00000190: cf0a 8dbd 46c0 813e 99d5 903e ce57 17be
000001a0: 3c44 153d 148e 01be 13be a3bd 9515 a63c
000001b0: cf5b d93d 5156 33be acf0 423e 2c09 4cbe
000001c0: d25d 10bd b9bc 28be fad3 d33d 52c6 60be
000001d0: f985 0ebe b254 b13e fb32 1ebe eedb 833e
000001e0: 2cd3 a3be af3a edbd a77d cd3d f813 9bbd
000001f0: a7e1 a03d 5840 d4be dd93 94be 19ad f4bd
00000200: c98b 4dbd 0e3b b0bd 1183 4b3d 5a98 55be
00000210: 9ef9 3a3e b37a 913e 6471 d0be 4324 49bc
00000220: 9054 e43c c402 80bd bd3c 923d a07b 20bd
00000230: 751b 093e 49f0 933d 5768 dabd 8c5a 27be
00000240: 6f60 b13e 90a3 65bd 0dec 5e3e 856e a4bd
00000250: 3c49 0fbe 92af 95bd ed62 50be 4cfd a1bd
00000260: 6c21 f3bd ceb0 d53d aced ec3d 5336 013e
00000270: 2742 c53d 3cd2 b8bd b8c9 af3d 7c29 793b
00000280: 335b 113e 41f2 043d 81d9 6b3d a53a a7bd
00000290: d41a 513d 8475 11bd b8d4 913e c219 3c3e
000002a0: 1024 2c3e ae65 bdbe bdf3 85be a16a ff3c
000002b0: ace9 be3d db2a 5b3e 049c 223c 8fa9 83bd
000002c0: 21a5 64bd 3e94 35be aac3 6fbd 4fe8 babc
000002d0: 73f3 f03d e07b 1bbd 3183 1e3f e580 f33e
000002e0: 8a8c 05be 394d d93c 5c30 143e 3cfd ed3e
000002f0: 4fb5 5d3e c17e a2be 886f a8bc ead7 843d
00000300: fe46 49bd 082d c83e 1792 c2bd 6eab 79be
00000310: 5c7e 613e 263c 013e 530c a4be 6006 b23e
00000320: 40ad a03e 1a25 20bf c565 17bf e9ea 65be
00000330: 3126 3bbe c257 65be cd36 f4bd 0eb1 8cbe
00000340: de45 643e c24a 053e 66c1 cebd 3fc8 593e
00000350: 5bd6 453e 5ef9 7f3e 0afa 0fbd aaf2 9dbe
00000360: d128 01be b53a 883e d632 f43d 8144 983d
00000370: fc6d 6f3a 1a90 43bd d037 fd3d bdea 1b3e
00000380: d5d6 6abd a3a6 92be ed70 51bd 7f5d 9ebe
00000390: f96c e3bd 3490 8dbe 30b4 a03d 75a0 7bbe
000003a0: 25ff 5f3e 1f30 b73d 7a23 813d 94e1 8a3d
000003b0: ec18 183e 4a8c f6bd d195 7dbd 0f9f 78be
000003c0: ede3 e53d 5821 3bbe 6435 89be 25f2 63bd
000003d0: a0ce e03d c974 a6be 2c00 b03d ec3e d5bd
000003e0: 5c9c b73e a161 5b3e f66a b4bd 9740 1abe
000003f0: 7a50 12be 1a6e 11be 76b1 883d a1e2 ffbe

fc1.bias f4 [64]
-0.33107132 -0.2174214 0.06321841 0.2163595 0.0014965588 -0.056855343 -0.077548794 -0.19708772
-0.3486838 0.19790271 0.066570744 -0.45877174 0.16656403 0.006592598 0.31322867 0.15972953
0.19378883 0.43096513 -0.28944477 -0.06925619 0.42035094 0.09516419 -0.3549696 -0.0017389997
0.037763912 -0.31900266 -0.0687108 -0.23721783 0.34409165 -0.14172868 -0.14337055 -0.02637126
-0.24447925 -0.055955496 0.055927284 -0.085102536 0.594426 0.26193607 -0.13877138 0.22300912
0.11905139 -0.2316657 -0.13930438 0.29452896 -0.3231827 -0.14189357 -0.11585437 0.17330481
0.29960787 -0.35810378 0.3121859 -0.33369488 0.23774062 0.2907032 0.053136643 0.34350303
0.24251382 -0.054125402 0.00944772 0.2679094 -0.13029312 -0.12289891 0.48836252 0.30139583
00000000: 2e82 a9be b7a3 5ebe a778 813d 588d 5d3e
00000010: 2e28 c43a 26e1 68bd e7d1 9ebd 5dd1 49be
00000020: af86 b2be 02a7 4a3e 3e56 883d 21e4 eabe
00000030: c38f 2a3e b806 d83b 825f a03e 2390 233e
00000040: 9470 463e 76a7 dc3e 1b32 94be 30d6 8dbd
00000050: 3d38 d73e 71e5 c23d 93be b5be 26ef e3ba
00000060: 55ae 1a3d 5154 a3be 3fb8 8cbd 3be9 72be
00000070: c82c b03e 5321 11be bbcf 12be 8a08 d8bc
00000080: c558 7abe 9731 65bd 0214 653d 3d4a aebd
00000090: 4d2c 183f 7c1c 863e 161a 0ebe 815c 643e
000000a0: 37d1 f33d c639 6dbe cfa5 0ebe 80cc 963e
000000b0: 3478 a5be 8c4c 11be 0e45 edbd d176 313e
000000c0: 3466 993e 6159 b7be d5d6 9f3e 0eda aabe
000000d0: 4772 733e 0dd7 943e cfa5 593d a1df af3e
000000e0: 8b55 783e 99b2 5dbd 9cca 1a3c 6c2b 893e
000000f0: 8f6b 05be 6cb2 fbbd a70a fa3e 8e50 9a3e

fc2.weight f4 [128, 64]
0.15282454 -0.29942888 0.048363905 -0.18663572 -0.010986736 0.206576 0.27873582 -0.05090517
0.22403382 -0.11851808 -0.06424952 0.27305657 -0.067554444 0.13119496 0.16513325 -0.011883343
0.2727756 0.16969247 -0.079911396 0.39535183 0.03344766 0.24161139 0.34609887 -0.11767448
-0.322805 -0.04059612 -0.23075669 -0.31129578 -0.4876795 -0.21969426 -0.06405259 0.41832513
0.04967586 -0.09806614 -0.05467316 0.07512408 0.06594012 -0.06656055 -0.31869644 -0.014505332
0.06981734 -0.008611513 0.3794209 -0.0529871 0.27880305 -0.23734121 0.07158334 -0.11405377
0.37340486 -0.24848756 -0.00038216097 -0.20862521 0.060165524 -0.1241858 -0.018778265 -0.35493484
0.23950961 0.12872143 0.3566504 -0.10573608 -0.09744341 0.015439933 0.141679 0.028124185
0.10601966 0.48567307 -0.116805725 -0.08533262 -0.5800652 0.042690985 -0.20514524 0.29693013
-0.067162596 -0.27545488 -0.19073622 -0.13758987 -0.08723788 0.086480536 -0.24899688 -0.11628238
-0.23240955 0.36468363 0.08587016 0.14687984 0.25055 0.05428577 -0.3149986 -0.103099965
0.11947054 -0.0043095653 -0.0697612 0.21249689 0.032134525 -0.05917796 0.19435397 0.079376385
0.12437317 0.07173533 0.19397451 0.0028655564 -0.52548844 0.13885869 -0.28643543 -0.025655853
0.32121247 0.21152236 -0.28545776 -0.06890437 -0.024260452 0.09509058 -0.07088595 0.31471837
-0.14384206 0.0044379514 0.017748466 0.09899094 0.11772675 -0.3155607 0.11517918 0.1650968
-0.07843826 -0.18511932 0.09633778 0.17389208 0.4465454 -0.047525637 0.09269097 0.21041709
-0.3442283 0.15350915 0.25923887 -0.08969424 -0.26267552 -0.100083016 -0.30073494 -0.6461644
-0.10489098 -0.3253922 -0.1739983 0.31816238 -0.021741016 -0.35783747 0.02241153 -0.5367516
0.0049677487 -0.42087898 0.26778084 -0.04161262 -0.31933683 0.34855786 -0.69489515 0.28421178
0.11745728 0.1589061 -0.044731393 0.27326396 -0.7838919 0.29930884 0.09844269 0.2828588
-0.14791362 0.21597876 -0.5342406 0.11490579 -0.18574631 0.05810692 0.22624245 0.22646387
0.024350375 -0.035146877 -0.20740311 0.04535537 0.10481273 -0.13406433 0.05674294 -0.28985512
0.13002883 0.09756458 0.16732767 -0.076686576 0.19833356 0.07357911 0.17379995 -0.083236486
0.4162466 -0.027836118 -0.23775584 0.013922167 0.12417722 0.15058899 -0.000573335 0.15462822
0.074954264 -0.1845171 0.43712303 0.12198855 0.26757428 0.13095213 0.27573 0.22113064
-0.6027518 0.058828585 -0.13089785 0.19496939 -0.096192464 -0.073538795 0.044394597 -0.09600849
0.22306953 0.5161866 0.17982163 -0.2535487 0.062445488 -0.00060119 -0.60416865 0.06441236
0.22964963 -0.15048327 -0.2801722 -0.15597066 0.2572882 0.2569325 -0.10041144 -0.16999154
-0.021748777 -0.047591608 0.06888096 -0.19891195 -0.10370107 -0.11771797 0.20169598 -0.10718538
-0.10121858 -0.30437914 -0.088528045 0.08480454 0.08581638 0.28687975 0.16231366 -0.007692959
-0.119239196 -0.29714793 -0.12067998 0.25167844 0.21670768 0.102777936 -0.24941841 -0.3112355
0.14904743 0.009403889 0.14674048 0.07313594 0.027914312 0.3420193 0.089865714 -0.1881217
00000000: 097e 1c3e be4e 99be 3b19 463d 6f1d 3fbe
00000010: b601 34bc a988 533e 76b6 8e3e f181 50bd
00000020: 1f69 653e 9bb9 f2bd 4195 83bd 12ce 8b3e
00000030: fc59 8abd f957 063e b118 293e 5ab2 42bc
00000040: 3ea9 8b3e ddc3 2d3e 96a8 a3bd 8e6b ca3e
00000050: 6a00 093d fa68 773e df33 b13e 51ff f0bd
00000060: b246 a5be 1e48 26bd 7b4b 6cbe 2962 9fbe
00000070: 21b1 f9be 88f7 60be 012e 83bd b62e d63e
00000080: ea78 4b3d e7d6 c8bd f7f0 5fbd a7da 993d
00000090: 9d0b 873d e650 88bd 2e2c a3be c6a7 6dbc
000000a0: 65fc 8e3d 4e17 0dbc 7543 c23e 0009 59bd
000000b0: 46bf 8e3e 9309 73be 499a 923d 0695 e9bd
000000c0: ec2e bf3e 8673 7ebe c75c c8b9 d9a1 55be
000000d0: 2070 763d 2055 febd e0d4 99bc 05ba b5be
000000e0: 0242 753e 8dcf 033e e29a b63e 288c d8bd
000000f0: 6990 c7bd c6f7 7c3c 4d14 113e b164 e63c
00000100: d620 d93d 24aa f83e d737 efbd dec2 aebd
00000110: 277f 14bf bedc 2e3d 9811 52be 3a07 983e
00000120: 8b8c 89bd 6c08 8dbe 5b50 43be 5ce4 0cbe
00000130: c6a9 b2bd b51c b13d 0af9 7ebe 7525 eebd
00000140: c5fc 6dbe d0b7 ba3e b2dc af3d ab67 163e
00000150: 1748 803e c15a 5e3d 7f47 a1be 1326 d3bd
00000160: f8ac f43d 4137 8dbb f6de 8ebd c998 593e
00000170: 7e9f 033d 9764 72bd ba04 473e 1690 a23d
00000180: 5cb7 fe3d f9e9 923d 41a1 463e 0fcc 3b3b
00000190: 6986 06bf f930 0e3e aaa7 92be 392c d2bc
000001a0: f675 a43e 5199 583e 8527 92be bc1d 8dbd
000001b0: dbbd c6bc dabe c23d a72c 91bd c422 a13e
000001c0: 554b 13be 3c6c 913b 3b65 913c c3bb ca3d
000001d0: b91a f13d 2c91 a1be 10e3 eb3d 230f 293e
000001e0: 3da4 a0bd eb8f 3dbe be4c c53d c410 323e
000001f0: 99a1 e43e 3eaa 42bd c3d4 bd3d 9477 573e
00000200: b13e b0be 8131 1d3e f5ba 843e 9db1 b7bd
00000210: 687d 86be 53f8 ccbd eef9 99be 086b 25bf
00000220: 15d1 d6bd ce99 a6be 9c2c 32be 2ee6 a23e
00000230: 371a b2bc 7936 b7be 6398 b73c 8e68 09bf
00000240: 7fc8 a23b 737d d7be 921a 893e ff71 2abd
00000250: 1e80 a3be 2d76 b23e a6e4 31bf 3584 913e
00000260: 718d f03d 48b8 223e 4438 37bd 41e9 8b3e
00000270: 24ad 48bf 023f 993e 529c c93d ded2 903e
00000280: ab76 17be 8929 5d3e fec3 08bf ba53 eb3d
00000290: 4834 3ebe 8601 6e3d 1aac 673e 25e6 673e
000002a0: 707a c73c 2cf6 0fbd 7b61 54be 8dc6 393d
000002b0: 0ea8 d63d 2948 09be 496b 683d e467 94be
000002c0: 4726 053e f0cf c73d f257 2b3e da0d 9dbd
000002d0: f417 4b3e a5b0 963d 9df8 313e e477 aabd
000002e0: 461e d53e 9208 e4bc 4476 73be cd19 643c
000002f0: a050 fe3d 0034 1a3e dc4b 16ba dc56 1e3e
00000300: 9f81 993d 0df2 3cbe 97ce df3e 22d5 f93d
00000310: 7fff 883e 5118 063e 7c2c 8d3e 1270 623e
00000320: f14d 1abf 3ef6 703d 160a 06be 0ea6 473e
00000330: 8e00 c5bd 829b 96bd 1cd7 353d 19a0 c4bd
00000340: 576c 643e ce24 043f 2923 383e 23d1 81be
00000350: d7c6 7f3d 2e99 1dba ccaa 1abf a1ea 833d
00000360: 4629 6b3e 4918 1abe bb72 8fbe c6b6 1fbe
00000370: 47bb 833e a88c 833e 83a4 cdbd 4312 2ebe
00000380: 7e2a b2bc 6bef 42bd 7611 8d3d 93af 4bbe
00000390: 3a61 d4bd 1e16 f1bd 6489 4e3e 0284 dbbd
000003a0: b04b cfbd 95d7 9bbe 314e b5bd 01ae ad3d
000003b0: 80c0 af3d e7e1 923e 8d35 263e 3815 fcbb
000003c0: ae33 f4bd c623 98be 1127 f7bd ffdb 803e
000003d0: 9ee8 5d3e 3d7d d23d 8a67 7fbe 425a 9fbe
000003e0: e49f 183e c512 1a3c 2343 163e 4cc8 953d
000003f0: 8eac e43c 271d af3e 840b b83d faa2 40be

fc2.bias f4 [128]
-0.16833915 0.12277998 -0.39118952 -0.032201666 -0.4657949 -0.40874347 -0.1493504 0.15875876
0.16609168 0.18763952 -0.2697051 0.51547235 0.008937167 -0.2308293 -0.26178482 0.54864013
0.33809477 0.14464465 0.31666794 0.40883827 0.5310456 0.1106659 -0.4486242 -0.0050363895
-0.6149017 0.27665251 0.08927213 0.3617208 0.013488278 0.23705573 -0.61578727 0.30982977
0.065978274 0.01951309 0.16830161 0.4625943 0.0010291791 -0.7739744 0.35498402 0.12337641
-0.011664455 -0.10032089 0.15587406 0.479727 0.0021944821 0.40058854 -0.23385888 0.29251277
0.18854499 -0.12379222 0.021256158 -0.43660656 -0.0016715864 0.3255252 -0.49979946 -0.06572812
-0.36414576 0.46773124 0.21876983 0.5861088 -0.24920914 0.14087054 0.45823896 0.3889384
0.36691758 -0.35978657 -0.010619323 0.33630857 0.029114906 -0.15871479 0.010686497 -0.18061113
-0.51110023 0.0018425352 -0.15144536 0.13847263 0.027389858 -0.18684736 -0.34290907 0.07364758
0.4229347 0.19039844 0.1215449 0.5255854 -0.44114837 0.09570474 -0.046144504 0.31404397
-0.10708828 0.17745163 0.12792115 -0.12280514 0.4715217 -0.40728542 0.41698614 -0.19466738
-0.23210146 -0.00497395 -0.31145906 -0.24716944 -0.26919165 -0.03799532 -0.41414568 -0.04537114
-0.014282069 0.45135367 0.2626771 0.2409977 -0.15743065 -0.5415129 -0.3461807 0.4754809
0.52753174 0.32153273 -0.0122375535 0.62355375 -0.51115006 -0.11185353 -0.15497372 0.74620605
0.34176326 0.2780464 0.40305373 0.1495055 -0.08650909 0.56380665 -0.31853235 -0.021767357
00000000: 1961 2cbe 1274 fb3d fe49 c8be e5e5 03bd
00000010: ab7c eebe d346 d1be 50ef 18be a891 223e
00000020: f013 2a3e 9324 403e c916 8abe fff5 033f
00000030: 326d 123c 845e 6cbe a908 86be ae73 0c3f
00000040: c21a ad3e ba1d 143e 4d22 a23e 4053 d13e
00000050: 9bf2 073f cea4 e23d 12b2 e5be 4c08 a5bb
00000060: 336a 1dbf 66a5 8d3e 4ed4 b63d 7833 b93e
00000070: f0fd 5c3c bdbe 723e 3ca4 1dbf 02a2 9e3e
00000080: 9e1f 873d ead9 9f3c 4257 2c3e 29d9 ec3e
00000090: 85e5 863a 3023 46bf 77c0 b53e c5ac fc3d
000000a0: 451c 3fbc 0a75 cdbd 739d 1f3e c79e f53e
000000b0: 4dd1 0f3b f119 cd3e b478 6fbe 3cc4 953e
000000c0: f011 413e c786 fdbd 6521 ae3c e58a dfbe
000000d0: 2219 dbba 3dab a63e b7e5 ffbe 779c 86bd
000000e0: 5071 babe 787a ef3e 3305 603e 3a0b 163f
000000f0: ae30 7fbe 5e40 103e 4c9e ea3e ef22 c73e
00000100: 9fdc bb3e f235 b8be abfc 2dbc a330 ac3e
00000110: 6282 ee3c 2186 22be 6b16 2f3c 20f2 38be
00000120: 77d7 02bf 3981 f13a 7e14 1bbe c5cb 0d3e
00000130: b260 e03c ea54 3fbe c791 afbe 8bd4 963d
00000140: e68a d83e cff7 423e 88ec f83d c48c 063f
00000150: 33de e1be d900 c43d 0502 3dbd 5fca a03e
00000160: 1a51 dbbd e1b5 353e c3fd 023e 4381 fbbd
00000170: 4b6b f13e b787 d0be 357f d53e e356 47be
00000180: 01ac 6dbe 84fc a2bb 9077 9fbe fc19 7dbe
00000190: 7dd3 89be fba0 1bbd e70a d4be 17d7 39bd
000001a0: 57ff 69bc d417 e73e 9d7d 863e 1ac8 763e
000001b0: 8035 21be 97a0 0abf 993e b1be 3c72 f33e
000001c0: 520c 073f f09f a43e 0580 48bc 38a1 1f3f
000001d0: bbda 02bf 7713 e5bd 6eb1 1ebe 5c07 3f3f
000001e0: 98fb ae3e 195c 8e3e 0f5d ce3e f817 193e
000001f0: ae2b b1bd a255 103f ac16 a3be 7551 b2bc

fc3.weight f4 [256, 128]
0.0030325316 -0.024482518 -0.107454866 0.14069718 -0.19986133 -0.015066935 0.18180433 -0.05686618
-0.22898343 -0.024669014 -0.18558511 -0.09921986 0.21756513 -0.17893831 -0.00058599055 -0.27128735
0.066549465 -0.08253948 0.009456007 0.19184628 0.36965704 0.08002726 0.040468678 0.056368154
0.044570968 0.23104203 0.073766194 -0.21496361 -0.033862364 0.13238633 0.1799945 0.29285163
0.04849005 0.1448963 0.33180732 0.07911255 0.11508731 0.18615246 0.19429247 0.26155132
-0.010559191 -0.13971983 -0.04025623 -0.11025001 0.20405747 -0.6564152 -0.31592822 -0.0077642086
0.11465104 -0.0845953 0.19920248 0.19922346 0.073568106 -0.14105684 -0.32633138 0.036787633
0.022803418 -0.020139955 -0.24524869 -0.43577743 0.368959 -0.052533 0.32407433 -0.25449768
0.07863943 0.114561744 0.045033034 -0.15836878 0.1912489 0.0012598727 0.26716548 -0.10196933
-0.38104907 0.045571167 -0.2721862 -0.10960707 -0.20002536 -0.07632493 0.14716266 0.33868226
0.009739148 -0.11490559 0.012072497 -0.2660127 6.288889e-05 -0.1604431 -0.075121485 0.0054581435
0.11496412 -0.28723782 -0.00776432 -0.17128673 0.20418428 0.07539614 0.17583118 -0.27895844
-0.09232288 -0.20259534 0.12812056 0.04497721 0.15988807 0.024226923 0.0778466 0.33511883
-0.1896646 -0.3291212 0.0021040274 0.29094985 -0.0357472 -0.13927794 -0.27700114 -0.08236053
-0.17614244 -0.050128814 -0.45578167 -0.1336314 -0.22509517 -0.10575657 -0.12086193 0.36666992
0.03743601 0.26536444 0.24107125 0.14249073 -0.07103214 0.04469063 0.03609622 0.3559697
-0.09649171 0.15777712 -0.28680342 -0.14534736 -0.060215715 0.09842443 0.06241483 0.30397514
0.24326943 -0.09550693 0.043015514 -0.1257173 0.15760632 -0.20026322 -0.12586111 0.26424626
0.12627663 -0.47655082 -0.12268232 0.017757222 0.2470223 0.11426517 -0.13227369 0.09286653
-0.70910007 -0.38464224 -0.09339464 -0.05535758 0.0032498657 -0.28072327 -0.38617447 -0.107271425
-0.056936733 -0.23617332 0.6199512 0.4895641 0.17672572 0.040166717 0.047293503 0.033990376
0.16921952 -0.21305032 0.16058318 0.07805743 0.016461726 0.54449946 0.20113887 -0.33626932
0.0022278551 -0.007844584 -0.17356253 -0.38022402 -0.080529675 -0.07774722 0.02128665 -0.06470513
-0.27211252 0.06562971 0.2005528 0.08816456 -0.082781605 -0.08404158 -0.23979324 0.15816666
-0.013905758 -0.39019704 0.16725846 -0.20797907 -0.022267574 0.39883307 0.28728265 -0.0017668685
0.32149234 -0.3488498 0.16293015 0.022506883 -0.2971797 -0.056514032 -0.14008877 0.33216217
0.21638438 0.15608622 -0.11350933 0.048933428 0.19827875 -0.15138385 0.2812909 0.18236624
-0.09835237 0.05190467 -0.08812973 0.0075740474 0.24213709 0.45345354 -0.03143524 -0.033419557
-0.1260755 -0.03171561 -0.024195818 0.10562882 -0.040308792 -0.48139188 0.04999529 -0.1980068
-0.12534519 0.10119616 0.26786646 -0.0230336 -0.38508162 -0.19964169 -0.33428302 -0.10776141
-0.056334183 0.17310654 0.28310955 -0.030851377 0.21095578 0.50934964 0.23270851 0.0014170633
0.12945856 0.22259465 -0.020558408 0.0042392397 -0.12598537 0.030098584 -0.37672752 0.112531655
00000000: 70bd 463b 908f c8bc 4c11 dcbd ec12 103e
00000010: 73a8 4cbe 4edb 76bc ea2a 3a3e 83ec 68bd
00000020: a27a 6abe ac16 cabc 060a 3ebe c833 cbbd
00000030: 65c9 5e3e 9b3b 37be 299d 19ba 2de6 8abe
00000040: 164b 883d 750a a9bd 5eed 1a3c 5a73 443e
00000050: b043 bd3e 55e5 a33d 7cc2 253d 4be2 663d
00000060: 0c90 363d 4896 6c3e bb12 973d 6c1f 5cbe
00000070: 43b3 0abd 4890 073e 7a50 383e a6f0 953e
00000080: 819d 463d b25f 143e a6e2 a93e c305 a23d
00000090: e5b2 eb3d c09e 3e3e 9bf4 463e 0eea 853e
000000a0: 7500 2dbc b712 0fbe b7e3 24bd c2ca e1bd
000000b0: 71f4 503e d40a 28bf 58c1 a1be e76a febb
000000c0: 2ace ea3d 4d40 adbd bcfb 4b3e 3c01 4c3e
000000d0: e0aa 963d 3471 10be e814 a7be a1ae 163d
000000e0: 3cce ba3c 8cfc a4bc 7922 7bbe 381e dfbe
000000f0: 32e8 bc3e d82c 57bd 12ed a53e 854d 82be
00000100: b60d a13d 599f ea3d 8f74 383d 6d2b 22be
00000110: c0d6 433e 5022 a53a eac9 883e 4cd5 d0bd
00000120: dd18 c3be d5a8 3a3d fd5b 8bbe ac79 e0bd
00000130: 73d3 4cbe 3f50 9cbd cfb1 163e c367 ad3e
00000140: f390 1f3c 9f53 ebbd b9cb 453c d132 88be
00000150: 37e3 8338 324b 24be 4bd9 99bd 3ada b23b
00000160: 4f72 eb3d d610 93be d66b febb ca65 2fbe
00000170: af15 513e 4b69 9a3d 170d 343e a4d3 8ebe
00000180: c713 bdbd 2775 4fbe 0932 033e 063a 383d
00000190: b3b9 233e 8a77 c63c 0a6e 9f3d b294 ab3e
000001a0: 7037 42be 9382 a8be b9e3 093b 61f7 943e
000001b0: a86b 12bd e09e 0ebe 18d3 8dbe a3ac a8bd
000001c0: af5e 34be df53 4dbd 375c e9be abd6 08be
000001d0: 597f 66be e796 d8bd 7686 f7bd 29bc bb3e
000001e0: 8056 193d d9dd 873e 62db 763e 17e9 113e
000001f0: 4c79 91bd 860d 373d a1d9 133d a941 b63e
00000200: 729d c5bd 5390 213e e6d7 92be f0d5 14be
00000210: c1a4 76bd bf92 c93d b1a6 7f3d a1a2 9b3e
00000220: 9f1b 793e 2399 c3bd 0931 303d 09bc 00be
00000230: 8d63 213e cd11 4dbe bce1 00be 494b 873e
00000240: a94e 013e 78fe f3be de40 fbbd 9877 913c
00000250: 6af3 7c3e dc03 ea3d c172 07be cf30 be3d
00000260: 9587 35bf d4ef c4be b045 bfbd a1be 62bd
00000270: b3fb 543b f6ba 8fbe a9b8 c5be 1fb1 dbbd
00000280: 7e36 69bd 6bd7 71be 1fb5 1e3f 25a8 fa3e
00000290: 96f7 343e db85 243d d5b6 413d 7e39 0b3d
000002a0: e247 2d3e dd29 5abe eb6f 243e 93dc 9f3d
000002b0: beda 863c 5164 0b3f 59f7 4d3e 7e2b acbe
000002c0: 3501 123b 9286 00bc 60ba 31be b9ac c2be
000002d0: beec a4bd ef39 9fbd 5761 ae3c 2084 84bd
000002e0: 5552 8bbe df68 863d b75d 4d3e 9f8f b43d
000002f0: 6789 a9bd fe1d acbd 5c8c 75be 71f6 213e
00000300: fad4 63bc e8c7 c7be cd45 2b3e 77f8 54be
00000310: 7d6a b6bc d933 cc3e b616 933e 4596 e7ba
00000320: a59a a43e 719c b2be 29d7 263e 5b60 b83c
00000330: f027 98be 427b 67bd 6e73 0fbe 2911 aa3e
00000340: de93 5d3e 11d5 1f3e 9477 e8bd 6b6e 483d
00000350: 9609 4b3e 5e04 1bbe 5c05 903e 37be 3a3e
00000360: f86c c9bd fe99 543d 5c7d b4bd b72f f83b
00000370: c9f2 773e 102b e83e 3dc2 00bd f2e2 08bd
00000380: f019 01be 3ae8 01bd 4f36 c6bc ec53 d83d
00000390: d51a 25bd ff78 f6be dcc7 4c3d 4bc2 4abe
000003a0: 7d5a 00be ef3f cf3d cb25 893e f6b0 bcbc
000003b0: 6b29 c5be df6e 4cbe 2527 abbe 04b2 dcbd
000003c0: acbe 66bd d742 313e bcf3 903e 07bc fcbc
000003d0: cb04 583e bd64 023f 244b 6e3e c1bc b93a
000003e0: c990 043e daef 633e 1b6a a8bc 52e9 8a3b
000003f0: 4f02 01be 4e91 f63c 6ee2 c0be ff76 e63d

fc3.bias f4 [256]
-0.12214602 0.3674505 -0.44013047 0.08593796 0.14535584 -0.34266207 0.17477274 0.08707661
0.43646306 -0.11920454 -0.12873906 0.30631372 0.4076079 0.2953306 0.19721211 -0.19617635
-0.03294453 0.084307685 -0.07546328 0.26843333 0.06668048 -0.008605283 -0.06850488 -0.26883757
-0.5947999 -0.36038485 0.3259706 -0.113748625 -0.083564445 -0.01468556 0.3190384 0.16832575
-0.0018404314 -0.2561099 0.15800658 -0.031859823 0.51931113 -0.122095704 0.089633204 -0.10388624
-0.16620222 0.1383959 -0.09901989 -0.032778423 -0.15789317 -0.28994772 -0.18868239 -0.020863565
0.43730614 -0.09829483 0.12588769 0.26102737 -0.5537671 0.034619052 0.45657662 -0.33418736
0.10861556 0.085225254 0.20739245 0.29279274 -0.34874734 0.34726253 -0.36163762 0.03653545
-0.20431547 0.055893842 0.150254 0.1374857 -0.18826324 -0.5331358 0.3713012 -0.18432634
-0.08642195 0.031338297 -0.51953775 0.014459241 -0.053096827 -0.11635333 -0.008607079 0.44321638
-0.37106064 0.32235193 0.29503205 0.33870268 0.38590598 0.033748094 -0.051618174 0.08360427
0.49540073 -0.500355 -0.045020938 0.055980917 0.09064727 0.21192946 0.4360863 0.3716612
0.22812244 -0.056951657 -0.1876332 -0.19017388 0.11065029 -0.31010008 0.16597523 -0.4028011
-0.07644123 -0.41644484 -0.31151026 -0.012827976 -0.22845215 -0.014463284 0.26746222 -0.16028447
-0.4526265 -0.2722764 -0.016013794 0.0145446425 -0.14264719 0.21887818 0.14556076 0.44840184
0.013250054 0.38475692 0.98053974 0.18130781 0.07778632 0.1735995 0.57619035 -0.29490438
0.05639698 0.22284956 -0.054929193 -0.15784946 0.026653664 0.17195918 -0.12575744 -0.015451403
0.14003783 -0.19687523 -0.12897547 -0.2458537 0.20080036 0.61881906 -0.080079354 -0.16043691
0.111033544 -0.5585715 0.3328156 0.039958753 -0.19481665 0.2108422 -0.34508172 -0.10328253
-0.06479789 -0.42560628 -0.41258076 -0.059088554 -0.06010547 -0.096275195 -0.03640618 -0.1206881
-0.32175195 0.41651174 -0.19908825 0.10660719 -0.388637 0.23682088 0.04813294 -0.50693905
-0.1013941 -0.13504617 -0.20070006 -0.29245514 0.1959569 0.10335485 0.30822834 0.18950698
0.17584774 -0.032404616 -0.15414193 -0.0649669 -0.06598894 0.15657139 -0.11227956 0.0075845183
-0.44890955 -0.6171749 0.10465196 0.009458624 -0.13172325 0.13672125 -0.08074695 0.09733053
0.00954389 0.09457646 -0.31955263 0.04127311 -0.079087615 -0.7872983 0.0027814338 -0.62375015
0.46229282 -0.0025463924 0.3372208 -0.048788942 -0.72224593 0.49181327 0.1507945 -0.13342834
0.24949172 -0.6364182 0.44764528 -0.62677765 -0.08345074 0.34553996 0.29706815 -0.032303028
0.3910308 0.049304184 0.030502368 0.027519723 0.50695 -0.1017868 -0.03987445 -0.11295375
-0.042689953 -0.22602162 -0.29907024 -0.017530227 -0.4685223 0.53011256 -0.8406382 0.17996025
-0.48519936 -0.102183595 0.09846773 -0.3492424 0.42015773 0.11678559 -0.40820467 -0.29109427
-0.06643892 -0.007581949 0.2968947 0.05812614 -0.074155025 0.2857343 -0.009596319 -0.0030400339
-0.4158111 -0.09922323 -0.26702505 0.35119033 0.16801298 0.41215712 -0.0880911 0.055434413
00000000: b127 fabd 7922 bc3e c858 e1be 3e00 b03d
00000010: 29d8 143e 6771 afbe a0f7 323e 3955 b23d
00000020: 1678 df3e 8321 f4bd 2cd4 03be 27d5 9c3e
00000030: fcb1 d03e 9335 973e f9f1 493e 74e2 48be
00000040: d8f0 06bd 82a9 ac3d 7e8c 9abd 1870 893e
00000050: c78f 883d 2cfd 0cbc 494c 8cbd 14a5 89be
00000060: ce44 18bf 5d84 b8be 9ee5 a63e 0af5 e8bd
00000070: d623 abbd b49b 70bc 0059 a33e 965d 2c3e
00000080: a13a f1ba d620 83be 7acc 213e 727f 02bd
00000090: 93f1 043f 500d fabd 9d91 b73d 4fc2 d4bd
000000a0: ea30 2abe a8b7 0d3e f1ca cabd ab42 06bd
000000b0: bfae 21be 0774 94be f535 41be 11ea aabc
000000c0: 97e6 df3e cd4e c9bd b4e8 003e 61a5 853e
000000d0: aec3 0dbf b5cc 0d3d 69c4 e93e 9b1a abbe
000000e0: d671 de3d 948a ae3d b05e 543e eee8 953e
000000f0: 038f b2be 65cc b13e 9128 b9be 32a6 153d
00000100: 1338 51be f1f0 643d 2fdc 193e 0dc9 0c3e
00000110: 14c8 40be 967b 08bf 311b be3e 0bc0 3cbe
00000120: fefd b0bd 965c 003d 6d00 05bf 74e6 6c3c
00000130: 0f7c 59bd a84a eebd b504 0dbc 42ed e23e
00000140: a9fb bdbe 500b a53e 710e 973e 706a ad3e
00000150: 7895 c53e 713b 0a3d 946d 53bd b738 ab3d
00000160: 2aa5 fd3e 4417 00bf e067 38bd 3f4c 653d
00000170: 47a5 b93d 0904 593e b446 df3e 604a be3e
00000180: ee98 693e 2446 69bd eb22 40be f1bc 42be
00000190: 9f9c e23d 70c5 9ebe 69f5 293e f23b cebe
000001a0: 388d 9cbd 4238 d5be 467e 9fbe 6e2c 52bc
000001b0: 5cef 69be 69f7 6cbc cff0 883e 9d21 24be
000001c0: a9be e7be d067 8bbe 5c2f 83bc a74c 6e3c
000001d0: 1b12 12be 9a21 603e e10d 153e ed94 e53e
000001e0: c116 593c dcfe c43e a704 7b3f c1a8 393e
000001f0: 6f4e 9f3d 11c4 313e 3681 133f b5fd 96be
00000200: 8500 673d ad32 643e 6ffd 60bd 4aa3 21be
00000210: c958 da3c 1116 303e 8fc6 00be e227 7dbc
00000220: 1466 0f3e a999 49be 2512 04be 13c1 7bbe
00000230: 9c9e 4d3e ed6a 1e3f a500 a4bd 9349 24be
00000240: 8e65 e33d 8bfe 0ebf ce66 aa3e caab 233d
00000250: 047e 47be 05e7 573e 8dae b0be cb85 d3bd
00000260: c2b4 84bd 11e9 d9be c93d d3be d706 72bd
00000270: 2731 76bd ee2b c5bd a61e 15bd 532b f7bd
00000280: acbc a4be 0741 d53e cadd 4bbe df54 da3d
00000290: 6efb c6be 2c81 723e 0c27 453d c2c6 01bf
000002a0: b6a7 cfbd 8b49 0abe 5184 4dbe aebc 95be
000002b0: eda8 483e b5ab d33d 1bd0 9d3e 1e0e 423e
000002c0: 6e11 343e b4ba 04bd 62d7 1dbe 5e0d 85bd
000002d0: 3625 87bd 4054 203e d3f2 e5bd 8d87 f83b
000002e0: 79d7 e5be 2dff 1dbf c453 d63d 58f8 1a3c
000002f0: 76e2 06be a800 0c3e a85e a5bd 3b55 c73d
00000300: fa5d 1c3c 4eb1 c13d 679c a3be fe0d 293d
00000310: b0f8 a1bd 628c 49bf b748 363b 17ae 1fbf
00000320: a5b1 ec3e 60e1 26bb 34a8 ac3e ead6 47bd
00000330: 1ce5 38bf f3ce fb3e e069 1a3e 70a1 08be
00000340: c27a 7f3e 4eec 22bf c331 e53e 8074 20bf
00000350: 39e8 aabd 9dea b03e 5119 983e 2e50 04bd
00000360: 3035 c83e 2ff3 493d 1ae0 f93c 0b71 e13c
00000370: 7ac7 013f 9975 d0bd 6453 23bd 4c54 e7bd
00000380: a9db 2ebd 3672 67be bc1f 99be 8d9b 8fbc
00000390: 28e2 efbe 75b5 073f 1134 57bf 8047 383e
000003a0: 0d6c f8be a245 d1bd 73a9 c93d e6cf b2be
000003b0: ea1e d73e 492d ef3d 3400 d1be 4f0a 95be
000003c0: 2111 88bd ff71 f8bb 9502 983e ad15 6e3d
000003d0: 97de 97bd c44b 923e e139 1dbc 4e3b 47bb
000003e0: 31e5 d4be 8c35 cbbd 82b7 88be 38cf b33e
000003f0: 980b 2c3e 4206 d33e 1b69 b4bd 320f 633d

fc4.weight f4 [128, 256]
-0.18460782 -0.030674826 -1.5309994 0.15900518 -0.72747886 -0.107788116 -0.17982472 0.1248414
-0.4448746 0.16901419 0.33791026 0.015596967 0.077325515 -1.6200074 0.08100756 -0.20411208
0.19458702 -0.42686337 0.18371591 -0.57294375 0.13853487 -0.10924797 -0.08912684 -0.06237248
-1.6631335 -0.47803152 -0.23714432 -0.2889466 0.17353429 0.41400966 -0.32391065 -0.16031544
0.40013394 0.06401219 -0.41495693 0.18842803 -0.12749173 -0.05379681 -0.23679166 -0.048466746
-1.0437231 -0.69817156 0.05710497 0.3336174 -0.0244417 -0.6406059 -0.6606066 0.43421757
-0.46229076 0.07441046 0.015059379 -0.38331118 0.17236988 -0.86065227 0.007310005 -0.71866006
-0.17999044 -0.19640067 -0.49306378 0.24886508 0.39171764 -0.052703436 -1.0298553 0.26154697
-0.66186726 0.017808137 0.32752827 0.24723472 -0.107039675 0.0068135313 0.10066627 0.045984242
0.6989763 0.095174395 -0.15542082 -0.83533037 -0.12392866 -0.053932995 -0.012063804 -0.36193082
-0.22174744 0.87438405 -0.264352 0.27194887 0.09590446 -0.46626395 -0.31602344 0.37473536
-0.14727567 0.13014998 -2.4743142 0.05227315 -0.0075671766 0.10625084 -0.04592064 0.46887562
-0.52989703 -0.061737772 0.17223698 0.022266146 0.32932174 0.11426226 0.2324815 -0.15177535
0.25558364 -0.5619391 -0.1684284 -1.18997 -0.021560559 -0.05637549 -2.4266987 -0.05104465
-0.18288846 -0.10047875 0.36130702 -0.7049971 0.34505406 0.19920363 -0.2208955 -1.0719048
0.17096698 0.27885106 0.2037869 0.30968502 -0.41667205 -0.13294682 -0.29588544 0.28020337
0.19119884 0.3125292 0.17749472 -0.19762664 -0.32774898 -0.47693875 -1.0610563 -0.22372165
0.180936 -0.047415823 0.25950772 0.757088 0.011089256 -0.48146266 -0.115442716 0.3479065
-0.19680524 -0.7451981 -0.19113895 -0.07511606 -0.2529709 0.05341987 0.5469566 -0.079590954
-0.6699728 -0.28389218 -0.21243018 0.25207332 -0.67598623 0.010071742 -0.11956182 -0.18178035
0.07518687 0.15629326 0.33584225 -0.44713706 0.19556038 0.3439943 -0.1611518 -0.17114168
0.3732521 -0.055867232 -0.7109565 -0.31208876 0.07783934 -0.054099105 -0.0942817 0.0009650406
0.11518428 -0.37688246 -0.43943474 -0.43595195 -0.08424088 0.55736136 -0.027443891 -0.09218946
-0.08627531 0.2843944 0.0036120547 -0.2790951 0.0069738724 0.13009724 -0.05540163 -0.091013685
-0.021256695 -0.031504437 0.075782806 -0.09466288 0.0995462 -0.009924794 -0.3498564 0.028864434
0.26889452 0.061126214 -0.31426203 0.00013703122 -0.6273326 0.052441537 -0.41849357 -0.053638954
0.57117873 -0.84603083 -0.21182966 -0.13478284 0.3324814 -0.056278612 0.10675725 0.012827531
-0.28448948 -0.048409633 -0.18443593 -0.46506363 0.42061844 -0.017689971 0.019124204 -0.012701643
0.06384944 0.12853587 0.3284688 -0.017302182 -0.48990402 0.31359234 0.061557002 0.26228726
0.14227448 0.14408728 0.062495247 -0.09225785 0.7050111 -0.05583957 -0.7080318 -0.04202989
-0.04534865 -0.017164765 -0.5967204 -0.028813878 -0.06316613 -0.17654425 -0.5261403 -0.0629911
-0.5635676 -0.15221949 0.2699053 -0.12567793 1.3609505 -0.050420273 0.23801745 0.08100958
00000000: d509 3dbe c649 fbbc caf7 c3bf 41d2 223e
00000010: 0e3c 3abf 04c0 dcbd f923 38be d9ac ff3d
00000020: 9bc6 e3be 0e12 2d3e 9302 ad3e 6c8a 7f3c
00000030: d75c 9e3d 675c cfbf 4be7 a53d c202 51be
00000040: d241 473e d68d dabe 0620 3c3e 71ac 12bf
00000050: 16dc 0d3e 66bd dfbd 2288 b6bd 497a 7fbd
00000060: 8fe1 d4bf 8cc0 f4be f6d5 72be cff0 93be
00000070: f9b2 313e 13f9 d33e 9ed7 a5be bb29 24be
00000080: 5bde cc3e d318 833d 3c75 d4be 47f3 403e
00000090: 318d 02be 0b5a 5cbd 8379 72be 1185 46bd
000000a0: b898 85bf 5fbb 32bf e7e6 693d e6cf aa3e
000000b0: f639 c8bc c0fe 23bf 841d 29bf c451 de3e
000000c0: 60b1 ecbe 8364 983d 9dbb 763c 5d41 c4be
000000d0: bb81 303e b553 5cbf c488 ef3b 1bfa 37bf
000000e0: 6a4f 38be 421d 49be db72 fcbe 7dd6 7e3e
000000f0: 378f c83e 8fdf 57bd 4cd2 83bf 7ce9 853e
00000100: 2270 29bf 5fe2 913c c9b1 a73e 192b 7d3e
00000110: 9e37 dbbd 0b44 df3b 1e2a ce3d f959 3c3d
00000120: 1cf0 323f cbea c23d a326 1fbe 36d8 55bf
00000130: 4fce fdbd d8e8 5cbd 43a7 45bc ff4e b9be
00000140: c311 63be a2d7 5f3f 2559 87be e23c 8b3e
00000150: 8f69 c43d 26ba eebe d3cd a1be 50dd bf3e
00000160: 6fcf 16be 0946 053e 2a5b 1ec0 5f1c 563d
00000170: 14f6 f7bb 0a9a d93d 4817 3cbd 7710 f03e
00000180: 55a7 07bf bfe0 7cbd e45e 303e 7e67 b63c
00000190: dc9c a83e 5502 ea3d a10f 6e3e ff6a 1bbe
000001a0: dcdb 823e 3edb 0fbf 7f78 2cbe f050 98bf
000001b0: c59f b0bc fce9 66bd 084f 1bc0 3214 51bd
000001c0: 1d47 3bbe cec7 cdbd 3cfd b83e b17a 34bf
000001d0: edaa b03e 09fc 4b3e 6e32 62be 2d34 89bf
000001e0: f811 2f3e 91c5 8e3e 83ad 503e 098f 9e3e
000001f0: 0a56 d5be 3623 08be 4c7e 97be d176 8f3e
00000200: a1c9 433e d403 a03e 2dc1 353e a35e 4abe
00000210: b7ce a7be 5131 f4be b1d0 87bf 4a17 65be
00000220: 4947 393e 1837 42bd 32de 843e 85d0 413f
00000230: b6af 353c 4682 f6be 3b6d ecbd cd20 b23e
00000240: 5087 49be 4dc5 3ebf eeb9 43be 73d6 99bd
00000250: 6785 81be cbce 5a3d 5905 0c3f 9500 a3bd
00000260: 5683 2bbf 515a 91be 4c87 59be c10f 813e
00000270: 6f0d 2dbf f303 253c d4dc f4bd a124 3abe
00000280: 93fb 993d 570b 203e 84f3 ab3e 26ef e4be
00000290: fb40 483e 0520 b03e fa04 25be c43f 2fbe
000002a0: e61a bf3e 0ad5 64bd 3f01 36bf 19ca 9fbe
000002b0: 3b6a 9f3d 0697 5dbd c416 c1bd c7fa 7c3a
000002c0: bce5 eb3d bdf6 c0be 97fd e0be 1835 dfbe
000002d0: 7c86 acbd 3caf 0e3f 03d2 e0bc d4cd bcbd
000002e0: 1cb1 b0bd 259c 913e 39b8 6c3b 8ee5 8ebe
000002f0: 1585 e43b 3638 053e d2ec 62bd 6265 babd
00000300: 8522 aebc cc0a 01bd 0434 9b3d 9dde c1bd
00000310: e1de cb3d 9a9b 22bc 6120 b3be 1b75 ec3c
00000320: 8bac 893e 7b5f 7a3d f4e6 a0be 0ab0 0f39
00000330: df98 20bf f0cc 563d ca44 d6be 85b4 5bbd
00000340: c538 123f 7a95 58bf e0e9 58be 8304 0abe
00000350: 013b aa3e 6784 66bd 8ca3 da3d 912a 523c
00000360: 9ba8 91be 2e49 46bd c6dc 3cbe d21c eebe
00000370: 4d5b d73e 8fea 90bc 5daa 9c3c 8d1a 50bc
00000380: 7fc3 823d e89e 033e 102d a83e 4ebd 8dbc
00000390: b3d4 fabe 2d8f a03e 3223 7c3d 844a 863e
000003a0: 67b0 113e 9e8b 133e 04fb 7f3d aff1 bcbd
000003b0: 9c7b 343f 08b8 64bd 9241 35bf 8927 2cbd
000003c0: 82bf 39bd 1f9d 8cbc abc2 18bf 150b ecbc
000003d0: 3e5d 81bd 04c8 34be 21b1 06bf 7a01 81bd
000003e0: f745 10bf 6ddf 1bbe 0731 8a3e b7b1 00be
000003f0: a033 ae3f 7d85 4ebd d9ba 733e 5ae8 a53d

fc4.bias f4 [128]
0.1174804 -0.14926293 -0.002980382 -0.11769784 -0.470496 0.3396851 -0.16926348 0.04632102
-0.08455552 0.024424918 -0.27552998 -0.18407515 0.06912 0.27312455 0.05573955 -0.1568206
-0.26424542 0.3375098 -0.028043529 -0.30228457 -0.4152752 -0.17251836 -0.24333847 0.118956335
0.3075847 -0.25611395 -0.05732255 0.08202256 0.12879197 0.0793524 -0.22031379 -0.07562048
-0.19286975 0.34186715 0.055083517 -0.23053142 0.22477591 0.29462063 -0.26910937 -0.07631348
0.12756434 -0.15722458 -0.022828199 0.16635862 -0.06848461 0.101730086 0.2576117 -0.2189715
-0.12502041 0.034147374 -0.19338866 -0.11174714 0.040431898 0.09179761 0.1550391 0.00275052
-0.13824426 0.009293391 0.26742575 0.057923235 -0.029903378 -0.128085 0.17682166 -0.15761544
0.17822254 -0.5458049 0.1466853 0.0083973035 -0.3001893 -0.11054265 -0.13261071 -0.5437786
-0.2001074 -0.31710753 0.2294007 -0.13998578 0.040009312 -0.106767975 0.04970183 0.06604075
-0.1246643 0.03711028 0.08070958 0.02750619 -0.09497791 0.101501964 -0.16395788 -0.29998037
-0.43045485 0.5363426 0.056588847 -0.15102059 -0.58389777 0.005308252 -0.13934092 0.053274333
-0.09342461 -0.29883662 -0.013396452 -0.07524739 -0.1360629 0.2256413 -0.33808348 -0.014778504
0.06171305 0.17852633 0.024520805 -0.14242844 0.035948727 0.10593345 -0.20255855 0.13665828
-0.0330878 -0.123079665 0.06312218 0.10093783 0.06174995 -0.28871188 0.11946391 0.21209034
0.12943281 -0.457229 0.13191308 -0.12671608 0.010833818 0.075556956 -0.20274802 -0.45562792
00000000: 9099 f03d 62d8 18be 8352 43bb 910b f1bd
00000010: dae4 f0be 35eb ad3e 6853 2dbe 1cbb 3d3d
00000020: 722b adbd c416 c83c 4412 8dbe 327e 3cbe
00000030: c98e 8d3d fbd6 8b3e 284f 643d 9495 20be
00000040: 2d4b 87be 16ce ac3e 8bbb e5bc 0bc5 9abe
00000050: f39e d4be a7a8 30be b82d 79be 619f f33d
00000060: be7b 9d3e 5e21 83be 0dcb 6abd 72fb a73d
00000070: 0be2 033e 8383 a23d f099 61be e9de 9abd
00000080: a67f 45be 3609 af3e 419f 613d 6e10 6cbe
00000090: a82b 663e 84d8 963e b4c8 89be 3e4a 9cbd
000000a0: 3aa0 023e 7bff 20be 3402 bbbc ea59 2a3e
000000b0: a941 8cbd dd57 d03d aee5 833e 113a 60be
000000c0: 5a05 00be 1ede 0b3d ad07 46be afdb e4bd
000000d0: eb9b 253d 6300 bc3d 92c2 1e3e 1142 343b
000000e0: e78f 0dbe 4f43 183c 07ec 883e ea40 6d3d
000000f0: eef7 f4bc b728 03be bd10 353e f165 21be
00000100: f87f 363e dfb9 0bbf ac34 163e d894 093c
00000110: 69b2 99be 2f64 e2bd 1acb 07be 1335 0bbf
00000120: f4e8 4cbe eb5b a2be 04e8 6a3e 6f58 0fbe
00000130: cee0 233d 2ba9 dabd 2594 4b3d 5f40 873d
00000140: ff4f ffbd f300 183d 104b a53d a954 e13c
00000150: c783 c2bd 43e0 cf3d 93e4 27be 0797 99be
00000160: 9464 dcbe c04d 093f b5c9 673d 24a5 1abe
00000170: 537a 15bf d8f0 ad3b 63af 0ebe 3036 5a3d
00000180: 6755 bfbd 1d01 99be cb7c 5bbc 4e1b 9abd
00000190: 1354 0bbe 830e 673e 4719 adbe 8a21 72bc
000001a0: d3c6 7c3d 9bcf 363e dbdf c83c c3d8 11be
000001b0: f93e 133d a3f3 d83d 826b 4fbe 26f0 0b3e
000001c0: 1387 07bd 3111 fcbd 3446 813d 7eb8 ce3d
000001d0: 84ed 7c3d 0bd2 93be 7fa9 f43d 362e 593e
000001e0: 098a 043e eb19 eabe 3914 073e dcc1 01be
000001f0: 5480 313c 9bbd 9a3d 2d9d 4fbe 1048 e9be

fc5.weight f4 [61, 128]
0.7565484 0.063948736 -0.020303153 0.08572479 -0.16160016 -0.03697918 0.069757976 -0.10431641
0.16370323 -0.1449785 0.021464393 -0.0095367255 -0.2807878 0.17340834 -0.21992518 -0.023246791
0.079287454 -0.08173336 0.07930112 0.056286648 0.09117197 -0.095653415 -0.20582342 -0.00827555
0.33992714 0.02336784 -0.07192414 -0.0034799257 0.44833183 -0.010532887 0.004462314 -0.1717608
0.19304009 -0.23395424 0.39271182 0.07497533 -0.09359845 0.10075897 -0.25778964 0.13845359
-0.12257397 0.1327803 -0.15331654 -0.0025577217 0.096031085 -0.11051076 -0.10648376 -0.15873499
0.021054292 0.13234015 0.101352096 0.0075195297 0.042427737 -0.12196939 -0.010032957 0.08284161
-0.28539485 -0.21302427 0.042625017 0.059133798 -0.24550487 -0.06608801 -0.016421368 -0.058393184
-0.17559905 -0.11324858 0.13000952 0.31954876 -0.13060538 0.24756831 -0.07579143 0.12503618
0.24631108 -0.07808753 0.011928223 0.14693679 0.06180964 -0.020647798 0.053269748 -0.101607665
0.04054549 -0.14318748 0.093824424 0.16638474 0.05545997 -0.08686194 -0.0906418 0.10447236
-0.15038481 0.21394356 -0.11302862 0.11247706 -0.00062646257 -0.117470555 -0.034827963 0.37819916
0.1399577 -0.25084558 0.0058110734 -0.10607878 0.09716919 0.22182786 -0.1276129 -0.13588078
-0.15210955 0.20610663 -0.038916446 0.114996515 0.06694247 0.05101512 0.2684863 0.16994253
0.252136 0.032641698 -0.14367837 0.2999225 0.030887553 0.052529763 0.0019433028 0.38441885
0.21167997 -0.17028803 0.0123360315 -0.15477046 0.009254969 -0.15473102 0.014594475 -0.087308794
0.007919891 0.06971924 -0.024206059 -0.076947875 0.10482317 -0.07146606 0.030121805 0.03875134
0.0019780162 0.009434573 0.0039452584 -0.0149480775 -0.04467855 0.25403562 0.10878559 0.02104014
-0.07112889 -0.063200474 -0.2950409 0.049578026 0.073029645 0.041488327 0.25101644 0.033503857
0.007925436 -0.032244183 0.054756176 -0.13889058 -0.037371054 0.027288096 0.32658565 0.060760945
-0.086199455 -0.06689435 -0.2954055 -0.049604002 -0.08632726 -0.24444246 -0.09886292 -0.22473763
0.09859882 -0.023227653 -0.039030287 -0.117844805 -0.04487613 0.01581617 0.029642409 0.11494282
-0.07039249 0.16643664 -0.29366753 -0.039603375 0.15866408 0.1436451 -0.039623324 -0.050694533
0.07973747 0.0004848661 -0.14398825 -0.041165773 -0.07775527 0.08485705 -0.41826713 0.0024942977
0.107587 -0.101566456 -0.015235373 -0.05023554 -0.049471453 -0.040329654 -0.003445528 0.0073496155
0.031601552 -0.03703986 0.004757036 -0.072206356 -0.077929646 0.04147116 -0.09841885 -0.007501778
-0.077990115 0.14645523 0.01331688 -0.105734825 -0.08779824 -0.0036630798 -0.025429985 0.06863193
-0.017704833 -0.19280133 0.049242035 0.0038119096 0.0335679 0.05732143 -0.0007946491 -0.12640467
0.008900616 0.07336522 -0.15201508 -0.043841843 -0.18386607 -0.091131404 -0.042700656 0.06284744
0.013172366 -0.01706035 0.07103157 -0.00092142186 -0.12636589 -0.0037963395 0.089378245 -0.08948533
-0.057496414 0.14156131 0.08890516 -0.0052720713 0.04542175 0.08069837 -0.004110694 -0.039579388
0.060556125 0.118576035 -0.01778295 0.25973624 -0.03051038 0.064492054 0.0746159 0.07734524
00000000: 28ad 413f 8ef7 823d cc52 a6bc 7b90 af3d
00000010: 837a 25be 7b77 17bd 45dd 8e3d d8a3 d5bd
00000020: d2a1 273e 3e75 14be 18d6 af3c ed3f 1cbc
00000030: 6bc3 8fbe f591 313e 1134 61be 0e70 bebc
00000040: 7661 a23d d263 a7bd a068 a23d d48c 663d
00000050: 5fb8 ba3d f0e5 c3bd 60c3 52be 2c96 07bc
00000060: ee0a ae3e ea6d bf3c f74c 93bd 770f 64bb
00000070: c08b e53e 2192 2cbc 9a38 923b 10e2 2fbe
00000080: 4dac 453e b391 6fbe 8611 c93e aa8c 993d
00000090: 8bb0 bfbd b85a ce3d 01fd 83be c7c6 0d3e
000000a0: 1008 fbbd 8ff7 073e 03ff 1cbe 739f 27bb
000000b0: f2ab c43d 7753 e2bd 2814 dabd 6d8b 22be
000000c0: 0d7a ac3c 2d84 073e b091 cf3d 6366 f63b
000000d0: b5c8 2d3d 16cb f9bd 4661 24bc dda8 a93d
000000e0: 461f 92be 0923 5abe 9297 2e3d 4836 723d
000000f0: a165 7bbe 2759 87bd 1b86 86bc b12d 6fbd
00000100: 3dd0 33be dfee e7bd 3721 053e e59b a33e
00000110: 6bbd 05be 8c82 7d3e 8a38 9bbd 7c09 003e
00000120: f938 7c3e 5bec 9fbd 986e 433c 9976 163e
00000130: 1b2c 7d3d 9225 a9bc 6131 5a3d ae17 d0bd
00000140: 0713 263d bd9f 12be 0527 c03d c360 2a3e
00000150: fe29 633d ace4 b1bd 68a2 b9bd 9bf5 d53d
00000160: 7afe 19be 0514 5b3e 8d7b e7bd 5f5a e63d
00000170: 3139 24ba 6794 f0bd c4a7 0ebd 52a3 c13e
00000180: 1251 0f3e d56e 80be d16a be3b d53f d9bd
00000190: a400 c73d d826 633e f5ac 02be 5524 0bbe
000001a0: 9bc2 1bbe 9e0d 533e da66 1fbd 4b83 eb3d
000001b0: 2219 893d 3bf5 503d 0977 893e 6a05 2e3e
000001c0: f817 813e 4db3 053d 6c20 13be 718f 993e
000001d0: e507 fd3c 7329 573d 6cb6 fe3a 8cd2 c43e
000001e0: a2c2 583e fc5f 2ebe 111d 4a3c 267c 1ebe
000001f0: 27a2 173c cf71 1ebe aa1d 6f3c f4ce b2bd
00000200: 6ec2 013c f6c8 8e3d c94b c6bc d996 9dbd
00000210: 88ad d63d cc5c 92bd 01c2 f63c bab9 1e3d
00000220: 9ba1 013b 7893 1a3c 3a47 813b c8e8 74bc
00000230: db00 37bd f510 823e fbca de3d 5f5c ac3c
00000240: 06ac 91bd 406f 81bd 9a0f 97be 5412 4b3d
00000250: 9190 953d aaef 293d 3a85 803e 573b 093d
00000260: b0d9 013c 7a12 04bd 0348 603d 5539 0ebe
00000270: 6412 19bd 498b df3c 3c36 a73e 78e0 783d
00000280: 5789 b0bd e8ff 88bd 643f 97be 912d 4bbd
00000290: 59cc b0bd 204f 7abe a578 cabd 9f21 66be
000002a0: 2eee c93d eb47 bebc 39de 1fbd 9e58 f1bd
000002b0: 08d0 37bd ea90 813c a3d4 f23c 2467 eb3d
000002c0: f029 90bd 5e6e 2a3e 975b 96be 2637 22bd
000002d0: d678 223e b317 133e 114c 22bd 12a5 4fbd
000002e0: 664d a33d a035 fe39 a871 13be 719d 28bd
000002f0: 283e 9fbd 88c9 ad3d 1c27 d6be 5f77 233b
00000300: 9356 dc3d 1302 d0bd c99d 79bc c8c3 4dbd
00000310: 94a2 4abd b530 25bd 5ece 61bb 0bd5 f03b
00000320: a170 013d 1cb7 17bd e9e0 9b3b ede0 93bd
00000330: 9499 9fbd aadd 293d d28f c9bd 7ad1 f5bb
00000340: 48b9 9fbd 5cf8 153e 0b2f 5a3c 808b d8bd
00000350: 90cf b3bd 4810 70bb 8b52 d0bc e68e 8c3d
00000360: ba09 91bc b66d 45be 04b2 493d 3bd1 793b
00000370: 7f7e 093d e0c9 6a3d 0050 50ba 3a70 01be
00000380: e4d3 113c 8140 963d d7a9 1bbe 8193 33bd
00000390: 6347 3cbe 1aa3 babd e2e6 2ebd 29b6 803d
000003a0: e8d0 573c 26c2 8bbc 0079 913d 938b 71ba
000003b0: 0f66 01be 02cc 78bb f10b b73d 1644 b7bd
000003c0: 5c81 6bbd 73f5 103e e913 b63d 57c1 acbb
000003d0: 280c 3a3d 3045 a53d 00b3 86bb ff1d 22bd
000003e0: b309 783d fed7 f23d 8dad 91bc 26fc 843e
000003f0: e8f0 f9bc 6914 843d 39d0 983d 2e67 9e3d

fc5.bias f4 [61]
0.25536144 -0.5038717 -0.200685 0.09418678 -0.14026593 -0.08749222 0.0004058901 -0.11380526
-0.013540811 -0.0915295 0.032740172 -0.014977113 -0.1701296 0.17073843 0.1007764 0.18907571
-0.01202247 0.114669435 0.21022183 0.06004948 0.031837706 0.31001157 -0.2114595 -0.08604722
-0.17635809 -0.25733775 0.04584136 0.057066955 -0.08600246 -0.15066144 0.121127665 -0.028758582
0.003116685 -0.14234899 -0.09986423 0.07436041 -0.063803606 -0.12936023 -0.03705494 -0.019768182
0.043622214 0.029200107 0.0021708454 -0.1036681 0.03044215 -0.027682882 0.04902097 -0.042888656
0.019531861 -0.082840875 0.0044901893 -0.10850083 -0.07298602 -0.032159638 -0.14906526 -0.027508218
0.09437232 -0.15836668 -0.061773624 0.06263622 -0.094454125
00000000: bcbe 823e bcfd 00bf 5e80 4dbe 00e5 c03d
00000010: dfa1 0fbe 1f2f b3bd a6cd d439 bb12 e9bd
00000020: 47da 5dbc d273 bbbd 8f1a 063d 9162 75bc
00000030: 7436 2ebe 0ed6 2e3e db63 ce3d 109d 413e
00000040: e5f9 44bc cfd7 ea3d 6444 573e 72f6 753d
00000050: 4168 023d d6b9 9e3e d788 58be 8639 b0bd
00000060: 3797 34be c6c1 83be 26c4 3b3d 0abf 693d
00000070: 0f22 b0bd fe46 1abe c811 f83d 1e97 ebbc
00000080: 4c41 4c3b efc3 11be 9e85 ccbd 454a 983d
00000090: 77ab 82bd 0277 04be ecc6 17bd e2f0 a1bc
000000a0: 35ad 323d 1035 ef3c be44 0e3b f14f d4bd
000000b0: d161 f93c 36c7 e2bc 36ca 483d 04ac 2fbd
000000c0: 4801 a03c 7aa8 a9bd 7022 933b af35 debd
000000d0: b279 95bd d3b9 03bd 90a4 18be ea58 e1bc
000000e0: 4646 c13d e02a 22be 5706 7dbd 6b47 803d
000000f0: 2a71 c1bd
